{"format": "layers-model", "generatedBy": "keras v2.2.4", "convertedBy": "TensorFlow.js Converter v1.0.1", "modelTopology": {"keras_version": "2.2.4", "backend": "tensorflow", "model_config": {"class_name": "Model", "config": {"layers": [{"name": "input_1", "inbound_nodes": [], "class_name": "InputLayer", "config": {"dtype": "float32", "name": "input_1", "batch_input_shape": [null, 128, 128, 1], "sparse": false}}, {"name": "Conv1_pad", "inbound_nodes": [[["input_1", 0, 0, {}]]], "class_name": "ZeroPadding2D", "config": {"trainable": true, "data_format": "channels_last", "name": "Conv1_pad", "padding": [[0, 1], [0, 1]]}}, {"name": "Conv1", "inbound_nodes": [[["Conv1_pad", 0, 0, {}]]], "class_name": "Conv2D", "config": {"activation": "linear", "kernel_regularizer": null, "kernel_initializer": {"class_name": "VarianceScaling", "config": {"scale": 1.0, "seed": null, "mode": "fan_avg", "distribution": "uniform"}}, "bias_constraint": null, "data_format": "channels_last", "name": "Conv1", "bias_regularizer": null, "bias_initializer": {"class_name": "Zeros", "config": {}}, "strides": [2, 2], "trainable": true, "kernel_constraint": null, "dilation_rate": [1, 1], "activity_regularizer": null, "use_bias": false, "filters": 48, "kernel_size": [3, 3], "padding": "valid"}}, {"name": "bn_Conv1", "inbound_nodes": [[["Conv1", 0, 0, {}]]], "class_name": "BatchNormalization", "config": {"beta_regularizer": null, "scale": true, "gamma_constraint": null, "beta_constraint": null, "moving_mean_initializer": {"class_name": "Zeros", "config": {}}, "moving_variance_initializer": {"class_name": "Ones", "config": {}}, "trainable": true, "momentum": 0.999, "beta_initializer": {"class_name": "Zeros", "config": {}}, "center": true, "epsilon": 0.001, "gamma_initializer": {"class_name": "Ones", "config": {}}, "name": "bn_Conv1", "gamma_regularizer": null, "axis": -1}}, {"name": "Conv1_relu", "inbound_nodes": [[["bn_Conv1", 0, 0, {}]]], "class_name": "ReLU", "config": {"max_value": 6.0, "trainable": true, "name": "Conv1_relu", "threshold": 0.0, "negative_slope": 0.0}}, {"name": "expanded_conv_depthwise", "inbound_nodes": [[["Conv1_relu", 0, 0, {}]]], "class_name": "DepthwiseConv2D", "config": {"activation": "linear", "activity_regularizer": null, "bias_constraint": null, "data_format": "channels_last", "depth_multiplier": 1, "bias_regularizer": null, "bias_initializer": {"class_name": "Zeros", "config": {}}, "depthwise_constraint": null, "trainable": true, "depthwise_regularizer": null, "dilation_rate": [1, 1], "strides": [1, 1], "depthwise_initializer": {"class_name": "VarianceScaling", "config": {"scale": 1.0, "seed": null, "mode": "fan_avg", "distribution": "uniform"}}, "use_bias": false, "name": "expanded_conv_depthwise", "kernel_size": [3, 3], "padding": "same"}}, {"name": "expanded_conv_depthwise_BN", "inbound_nodes": [[["expanded_conv_depthwise", 0, 0, {}]]], "class_name": "BatchNormalization", "config": {"beta_regularizer": null, "scale": true, "gamma_constraint": null, "beta_constraint": null, "moving_mean_initializer": {"class_name": "Zeros", "config": {}}, "moving_variance_initializer": {"class_name": "Ones", "config": {}}, "trainable": true, "momentum": 0.999, "beta_initializer": {"class_name": "Zeros", "config": {}}, "center": true, "epsilon": 0.001, "gamma_initializer": {"class_name": "Ones", "config": {}}, "name": "expanded_conv_depthwise_BN", "gamma_regularizer": null, "axis": -1}}, {"name": "expanded_conv_depthwise_relu", "inbound_nodes": [[["expanded_conv_depthwise_BN", 0, 0, {}]]], "class_name": "ReLU", "config": {"max_value": 6.0, "trainable": true, "name": "expanded_conv_depthwise_relu", "threshold": 0.0, "negative_slope": 0.0}}, {"name": "expanded_conv_project", "inbound_nodes": [[["expanded_conv_depthwise_relu", 0, 0, {}]]], "class_name": "Conv2D", "config": {"activation": "linear", "kernel_regularizer": null, "kernel_initializer": {"class_name": "VarianceScaling", "config": {"scale": 1.0, "seed": null, "mode": "fan_avg", "distribution": "uniform"}}, "bias_constraint": null, "data_format": "channels_last", "name": "expanded_conv_project", "bias_regularizer": null, "bias_initializer": {"class_name": "Zeros", "config": {}}, "strides": [1, 1], "trainable": true, "kernel_constraint": null, "dilation_rate": [1, 1], "activity_regularizer": null, "use_bias": false, "filters": 24, "kernel_size": [1, 1], "padding": "same"}}, {"name": "expanded_conv_project_BN", "inbound_nodes": [[["expanded_conv_project", 0, 0, {}]]], "class_name": "BatchNormalization", "config": {"beta_regularizer": null, "scale": true, "gamma_constraint": null, "beta_constraint": null, "moving_mean_initializer": {"class_name": "Zeros", "config": {}}, "moving_variance_initializer": {"class_name": "Ones", "config": {}}, "trainable": true, "momentum": 0.999, "beta_initializer": {"class_name": "Zeros", "config": {}}, "center": true, "epsilon": 0.001, "gamma_initializer": {"class_name": "Ones", "config": {}}, "name": "expanded_conv_project_BN", "gamma_regularizer": null, "axis": -1}}, {"name": "block_1_expand", "inbound_nodes": [[["expanded_conv_project_BN", 0, 0, {}]]], "class_name": "Conv2D", "config": {"activation": "linear", "kernel_regularizer": null, "kernel_initializer": {"class_name": "VarianceScaling", "config": {"scale": 1.0, "seed": null, "mode": "fan_avg", "distribution": "uniform"}}, "bias_constraint": null, "data_format": "channels_last", "name": "block_1_expand", "bias_regularizer": null, "bias_initializer": {"class_name": "Zeros", "config": {}}, "strides": [1, 1], "trainable": true, "kernel_constraint": null, "dilation_rate": [1, 1], "activity_regularizer": null, "use_bias": false, "filters": 144, "kernel_size": [1, 1], "padding": "same"}}, {"name": "block_1_expand_BN", "inbound_nodes": [[["block_1_expand", 0, 0, {}]]], "class_name": "BatchNormalization", "config": {"beta_regularizer": null, "scale": true, "gamma_constraint": null, "beta_constraint": null, "moving_mean_initializer": {"class_name": "Zeros", "config": {}}, "moving_variance_initializer": {"class_name": "Ones", "config": {}}, "trainable": true, "momentum": 0.999, "beta_initializer": {"class_name": "Zeros", "config": {}}, "center": true, "epsilon": 0.001, "gamma_initializer": {"class_name": "Ones", "config": {}}, "name": "block_1_expand_BN", "gamma_regularizer": null, "axis": -1}}, {"name": "block_1_expand_relu", "inbound_nodes": [[["block_1_expand_BN", 0, 0, {}]]], "class_name": "ReLU", "config": {"max_value": 6.0, "trainable": true, "name": "block_1_expand_relu", "threshold": 0.0, "negative_slope": 0.0}}, {"name": "block_1_pad", "inbound_nodes": [[["block_1_expand_relu", 0, 0, {}]]], "class_name": "ZeroPadding2D", "config": {"trainable": true, "data_format": "channels_last", "name": "block_1_pad", "padding": [[0, 1], [0, 1]]}}, {"name": "block_1_depthwise", "inbound_nodes": [[["block_1_pad", 0, 0, {}]]], "class_name": "DepthwiseConv2D", "config": {"activation": "linear", "activity_regularizer": null, "bias_constraint": null, "data_format": "channels_last", "depth_multiplier": 1, "bias_regularizer": null, "bias_initializer": {"class_name": "Zeros", "config": {}}, "depthwise_constraint": null, "trainable": true, "depthwise_regularizer": null, "dilation_rate": [1, 1], "strides": [2, 2], "depthwise_initializer": {"class_name": "VarianceScaling", "config": {"scale": 1.0, "seed": null, "mode": "fan_avg", "distribution": "uniform"}}, "use_bias": false, "name": "block_1_depthwise", "kernel_size": [3, 3], "padding": "valid"}}, {"name": "block_1_depthwise_BN", "inbound_nodes": [[["block_1_depthwise", 0, 0, {}]]], "class_name": "BatchNormalization", "config": {"beta_regularizer": null, "scale": true, "gamma_constraint": null, "beta_constraint": null, "moving_mean_initializer": {"class_name": "Zeros", "config": {}}, "moving_variance_initializer": {"class_name": "Ones", "config": {}}, "trainable": true, "momentum": 0.999, "beta_initializer": {"class_name": "Zeros", "config": {}}, "center": true, "epsilon": 0.001, "gamma_initializer": {"class_name": "Ones", "config": {}}, "name": "block_1_depthwise_BN", "gamma_regularizer": null, "axis": -1}}, {"name": "block_1_depthwise_relu", "inbound_nodes": [[["block_1_depthwise_BN", 0, 0, {}]]], "class_name": "ReLU", "config": {"max_value": 6.0, "trainable": true, "name": "block_1_depthwise_relu", "threshold": 0.0, "negative_slope": 0.0}}, {"name": "block_1_project", "inbound_nodes": [[["block_1_depthwise_relu", 0, 0, {}]]], "class_name": "Conv2D", "config": {"activation": "linear", "kernel_regularizer": null, "kernel_initializer": {"class_name": "VarianceScaling", "config": {"scale": 1.0, "seed": null, "mode": "fan_avg", "distribution": "uniform"}}, "bias_constraint": null, "data_format": "channels_last", "name": "block_1_project", "bias_regularizer": null, "bias_initializer": {"class_name": "Zeros", "config": {}}, "strides": [1, 1], "trainable": true, "kernel_constraint": null, "dilation_rate": [1, 1], "activity_regularizer": null, "use_bias": false, "filters": 40, "kernel_size": [1, 1], "padding": "same"}}, {"name": "block_1_project_BN", "inbound_nodes": [[["block_1_project", 0, 0, {}]]], "class_name": "BatchNormalization", "config": {"beta_regularizer": null, "scale": true, "gamma_constraint": null, "beta_constraint": null, "moving_mean_initializer": {"class_name": "Zeros", "config": {}}, "moving_variance_initializer": {"class_name": "Ones", "config": {}}, "trainable": true, "momentum": 0.999, "beta_initializer": {"class_name": "Zeros", "config": {}}, "center": true, "epsilon": 0.001, "gamma_initializer": {"class_name": "Ones", "config": {}}, "name": "block_1_project_BN", "gamma_regularizer": null, "axis": -1}}, {"name": "block_2_expand", "inbound_nodes": [[["block_1_project_BN", 0, 0, {}]]], "class_name": "Conv2D", "config": {"activation": "linear", "kernel_regularizer": null, "kernel_initializer": {"class_name": "VarianceScaling", "config": {"scale": 1.0, "seed": null, "mode": "fan_avg", "distribution": "uniform"}}, "bias_constraint": null, "data_format": "channels_last", "name": "block_2_expand", "bias_regularizer": null, "bias_initializer": {"class_name": "Zeros", "config": {}}, "strides": [1, 1], "trainable": true, "kernel_constraint": null, "dilation_rate": [1, 1], "activity_regularizer": null, "use_bias": false, "filters": 240, "kernel_size": [1, 1], "padding": "same"}}, {"name": "block_2_expand_BN", "inbound_nodes": [[["block_2_expand", 0, 0, {}]]], "class_name": "BatchNormalization", "config": {"beta_regularizer": null, "scale": true, "gamma_constraint": null, "beta_constraint": null, "moving_mean_initializer": {"class_name": "Zeros", "config": {}}, "moving_variance_initializer": {"class_name": "Ones", "config": {}}, "trainable": true, "momentum": 0.999, "beta_initializer": {"class_name": "Zeros", "config": {}}, "center": true, "epsilon": 0.001, "gamma_initializer": {"class_name": "Ones", "config": {}}, "name": "block_2_expand_BN", "gamma_regularizer": null, "axis": -1}}, {"name": "block_2_expand_relu", "inbound_nodes": [[["block_2_expand_BN", 0, 0, {}]]], "class_name": "ReLU", "config": {"max_value": 6.0, "trainable": true, "name": "block_2_expand_relu", "threshold": 0.0, "negative_slope": 0.0}}, {"name": "block_2_depthwise", "inbound_nodes": [[["block_2_expand_relu", 0, 0, {}]]], "class_name": "DepthwiseConv2D", "config": {"activation": "linear", "activity_regularizer": null, "bias_constraint": null, "data_format": "channels_last", "depth_multiplier": 1, "bias_regularizer": null, "bias_initializer": {"class_name": "Zeros", "config": {}}, "depthwise_constraint": null, "trainable": true, "depthwise_regularizer": null, "dilation_rate": [1, 1], "strides": [1, 1], "depthwise_initializer": {"class_name": "VarianceScaling", "config": {"scale": 1.0, "seed": null, "mode": "fan_avg", "distribution": "uniform"}}, "use_bias": false, "name": "block_2_depthwise", "kernel_size": [3, 3], "padding": "same"}}, {"name": "block_2_depthwise_BN", "inbound_nodes": [[["block_2_depthwise", 0, 0, {}]]], "class_name": "BatchNormalization", "config": {"beta_regularizer": null, "scale": true, "gamma_constraint": null, "beta_constraint": null, "moving_mean_initializer": {"class_name": "Zeros", "config": {}}, "moving_variance_initializer": {"class_name": "Ones", "config": {}}, "trainable": true, "momentum": 0.999, "beta_initializer": {"class_name": "Zeros", "config": {}}, "center": true, "epsilon": 0.001, "gamma_initializer": {"class_name": "Ones", "config": {}}, "name": "block_2_depthwise_BN", "gamma_regularizer": null, "axis": -1}}, {"name": "block_2_depthwise_relu", "inbound_nodes": [[["block_2_depthwise_BN", 0, 0, {}]]], "class_name": "ReLU", "config": {"max_value": 6.0, "trainable": true, "name": "block_2_depthwise_relu", "threshold": 0.0, "negative_slope": 0.0}}, {"name": "block_2_project", "inbound_nodes": [[["block_2_depthwise_relu", 0, 0, {}]]], "class_name": "Conv2D", "config": {"activation": "linear", "kernel_regularizer": null, "kernel_initializer": {"class_name": "VarianceScaling", "config": {"scale": 1.0, "seed": null, "mode": "fan_avg", "distribution": "uniform"}}, "bias_constraint": null, "data_format": "channels_last", "name": "block_2_project", "bias_regularizer": null, "bias_initializer": {"class_name": "Zeros", "config": {}}, "strides": [1, 1], "trainable": true, "kernel_constraint": null, "dilation_rate": [1, 1], "activity_regularizer": null, "use_bias": false, "filters": 40, "kernel_size": [1, 1], "padding": "same"}}, {"name": "block_2_project_BN", "inbound_nodes": [[["block_2_project", 0, 0, {}]]], "class_name": "BatchNormalization", "config": {"beta_regularizer": null, "scale": true, "gamma_constraint": null, "beta_constraint": null, "moving_mean_initializer": {"class_name": "Zeros", "config": {}}, "moving_variance_initializer": {"class_name": "Ones", "config": {}}, "trainable": true, "momentum": 0.999, "beta_initializer": {"class_name": "Zeros", "config": {}}, "center": true, "epsilon": 0.001, "gamma_initializer": {"class_name": "Ones", "config": {}}, "name": "block_2_project_BN", "gamma_regularizer": null, "axis": -1}}, {"name": "block_2_add", "inbound_nodes": [[["block_1_project_BN", 0, 0, {}], ["block_2_project_BN", 0, 0, {}]]], "class_name": "Add", "config": {"trainable": true, "name": "block_2_add"}}, {"name": "block_3_expand", "inbound_nodes": [[["block_2_add", 0, 0, {}]]], "class_name": "Conv2D", "config": {"activation": "linear", "kernel_regularizer": null, "kernel_initializer": {"class_name": "VarianceScaling", "config": {"scale": 1.0, "seed": null, "mode": "fan_avg", "distribution": "uniform"}}, "bias_constraint": null, "data_format": "channels_last", "name": "block_3_expand", "bias_regularizer": null, "bias_initializer": {"class_name": "Zeros", "config": {}}, "strides": [1, 1], "trainable": true, "kernel_constraint": null, "dilation_rate": [1, 1], "activity_regularizer": null, "use_bias": false, "filters": 240, "kernel_size": [1, 1], "padding": "same"}}, {"name": "block_3_expand_BN", "inbound_nodes": [[["block_3_expand", 0, 0, {}]]], "class_name": "BatchNormalization", "config": {"beta_regularizer": null, "scale": true, "gamma_constraint": null, "beta_constraint": null, "moving_mean_initializer": {"class_name": "Zeros", "config": {}}, "moving_variance_initializer": {"class_name": "Ones", "config": {}}, "trainable": true, "momentum": 0.999, "beta_initializer": {"class_name": "Zeros", "config": {}}, "center": true, "epsilon": 0.001, "gamma_initializer": {"class_name": "Ones", "config": {}}, "name": "block_3_expand_BN", "gamma_regularizer": null, "axis": -1}}, {"name": "block_3_expand_relu", "inbound_nodes": [[["block_3_expand_BN", 0, 0, {}]]], "class_name": "ReLU", "config": {"max_value": 6.0, "trainable": true, "name": "block_3_expand_relu", "threshold": 0.0, "negative_slope": 0.0}}, {"name": "block_3_pad", "inbound_nodes": [[["block_3_expand_relu", 0, 0, {}]]], "class_name": "ZeroPadding2D", "config": {"trainable": true, "data_format": "channels_last", "name": "block_3_pad", "padding": [[0, 1], [0, 1]]}}, {"name": "block_3_depthwise", "inbound_nodes": [[["block_3_pad", 0, 0, {}]]], "class_name": "DepthwiseConv2D", "config": {"activation": "linear", "activity_regularizer": null, "bias_constraint": null, "data_format": "channels_last", "depth_multiplier": 1, "bias_regularizer": null, "bias_initializer": {"class_name": "Zeros", "config": {}}, "depthwise_constraint": null, "trainable": true, "depthwise_regularizer": null, "dilation_rate": [1, 1], "strides": [2, 2], "depthwise_initializer": {"class_name": "VarianceScaling", "config": {"scale": 1.0, "seed": null, "mode": "fan_avg", "distribution": "uniform"}}, "use_bias": false, "name": "block_3_depthwise", "kernel_size": [3, 3], "padding": "valid"}}, {"name": "block_3_depthwise_BN", "inbound_nodes": [[["block_3_depthwise", 0, 0, {}]]], "class_name": "BatchNormalization", "config": {"beta_regularizer": null, "scale": true, "gamma_constraint": null, "beta_constraint": null, "moving_mean_initializer": {"class_name": "Zeros", "config": {}}, "moving_variance_initializer": {"class_name": "Ones", "config": {}}, "trainable": true, "momentum": 0.999, "beta_initializer": {"class_name": "Zeros", "config": {}}, "center": true, "epsilon": 0.001, "gamma_initializer": {"class_name": "Ones", "config": {}}, "name": "block_3_depthwise_BN", "gamma_regularizer": null, "axis": -1}}, {"name": "block_3_depthwise_relu", "inbound_nodes": [[["block_3_depthwise_BN", 0, 0, {}]]], "class_name": "ReLU", "config": {"max_value": 6.0, "trainable": true, "name": "block_3_depthwise_relu", "threshold": 0.0, "negative_slope": 0.0}}, {"name": "block_3_project", "inbound_nodes": [[["block_3_depthwise_relu", 0, 0, {}]]], "class_name": "Conv2D", "config": {"activation": "linear", "kernel_regularizer": null, "kernel_initializer": {"class_name": "VarianceScaling", "config": {"scale": 1.0, "seed": null, "mode": "fan_avg", "distribution": "uniform"}}, "bias_constraint": null, "data_format": "channels_last", "name": "block_3_project", "bias_regularizer": null, "bias_initializer": {"class_name": "Zeros", "config": {}}, "strides": [1, 1], "trainable": true, "kernel_constraint": null, "dilation_rate": [1, 1], "activity_regularizer": null, "use_bias": false, "filters": 48, "kernel_size": [1, 1], "padding": "same"}}, {"name": "block_3_project_BN", "inbound_nodes": [[["block_3_project", 0, 0, {}]]], "class_name": "BatchNormalization", "config": {"beta_regularizer": null, "scale": true, "gamma_constraint": null, "beta_constraint": null, "moving_mean_initializer": {"class_name": "Zeros", "config": {}}, "moving_variance_initializer": {"class_name": "Ones", "config": {}}, "trainable": true, "momentum": 0.999, "beta_initializer": {"class_name": "Zeros", "config": {}}, "center": true, "epsilon": 0.001, "gamma_initializer": {"class_name": "Ones", "config": {}}, "name": "block_3_project_BN", "gamma_regularizer": null, "axis": -1}}, {"name": "block_4_expand", "inbound_nodes": [[["block_3_project_BN", 0, 0, {}]]], "class_name": "Conv2D", "config": {"activation": "linear", "kernel_regularizer": null, "kernel_initializer": {"class_name": "VarianceScaling", "config": {"scale": 1.0, "seed": null, "mode": "fan_avg", "distribution": "uniform"}}, "bias_constraint": null, "data_format": "channels_last", "name": "block_4_expand", "bias_regularizer": null, "bias_initializer": {"class_name": "Zeros", "config": {}}, "strides": [1, 1], "trainable": true, "kernel_constraint": null, "dilation_rate": [1, 1], "activity_regularizer": null, "use_bias": false, "filters": 288, "kernel_size": [1, 1], "padding": "same"}}, {"name": "block_4_expand_BN", "inbound_nodes": [[["block_4_expand", 0, 0, {}]]], "class_name": "BatchNormalization", "config": {"beta_regularizer": null, "scale": true, "gamma_constraint": null, "beta_constraint": null, "moving_mean_initializer": {"class_name": "Zeros", "config": {}}, "moving_variance_initializer": {"class_name": "Ones", "config": {}}, "trainable": true, "momentum": 0.999, "beta_initializer": {"class_name": "Zeros", "config": {}}, "center": true, "epsilon": 0.001, "gamma_initializer": {"class_name": "Ones", "config": {}}, "name": "block_4_expand_BN", "gamma_regularizer": null, "axis": -1}}, {"name": "block_4_expand_relu", "inbound_nodes": [[["block_4_expand_BN", 0, 0, {}]]], "class_name": "ReLU", "config": {"max_value": 6.0, "trainable": true, "name": "block_4_expand_relu", "threshold": 0.0, "negative_slope": 0.0}}, {"name": "block_4_depthwise", "inbound_nodes": [[["block_4_expand_relu", 0, 0, {}]]], "class_name": "DepthwiseConv2D", "config": {"activation": "linear", "activity_regularizer": null, "bias_constraint": null, "data_format": "channels_last", "depth_multiplier": 1, "bias_regularizer": null, "bias_initializer": {"class_name": "Zeros", "config": {}}, "depthwise_constraint": null, "trainable": true, "depthwise_regularizer": null, "dilation_rate": [1, 1], "strides": [1, 1], "depthwise_initializer": {"class_name": "VarianceScaling", "config": {"scale": 1.0, "seed": null, "mode": "fan_avg", "distribution": "uniform"}}, "use_bias": false, "name": "block_4_depthwise", "kernel_size": [3, 3], "padding": "same"}}, {"name": "block_4_depthwise_BN", "inbound_nodes": [[["block_4_depthwise", 0, 0, {}]]], "class_name": "BatchNormalization", "config": {"beta_regularizer": null, "scale": true, "gamma_constraint": null, "beta_constraint": null, "moving_mean_initializer": {"class_name": "Zeros", "config": {}}, "moving_variance_initializer": {"class_name": "Ones", "config": {}}, "trainable": true, "momentum": 0.999, "beta_initializer": {"class_name": "Zeros", "config": {}}, "center": true, "epsilon": 0.001, "gamma_initializer": {"class_name": "Ones", "config": {}}, "name": "block_4_depthwise_BN", "gamma_regularizer": null, "axis": -1}}, {"name": "block_4_depthwise_relu", "inbound_nodes": [[["block_4_depthwise_BN", 0, 0, {}]]], "class_name": "ReLU", "config": {"max_value": 6.0, "trainable": true, "name": "block_4_depthwise_relu", "threshold": 0.0, "negative_slope": 0.0}}, {"name": "block_4_project", "inbound_nodes": [[["block_4_depthwise_relu", 0, 0, {}]]], "class_name": "Conv2D", "config": {"activation": "linear", "kernel_regularizer": null, "kernel_initializer": {"class_name": "VarianceScaling", "config": {"scale": 1.0, "seed": null, "mode": "fan_avg", "distribution": "uniform"}}, "bias_constraint": null, "data_format": "channels_last", "name": "block_4_project", "bias_regularizer": null, "bias_initializer": {"class_name": "Zeros", "config": {}}, "strides": [1, 1], "trainable": true, "kernel_constraint": null, "dilation_rate": [1, 1], "activity_regularizer": null, "use_bias": false, "filters": 48, "kernel_size": [1, 1], "padding": "same"}}, {"name": "block_4_project_BN", "inbound_nodes": [[["block_4_project", 0, 0, {}]]], "class_name": "BatchNormalization", "config": {"beta_regularizer": null, "scale": true, "gamma_constraint": null, "beta_constraint": null, "moving_mean_initializer": {"class_name": "Zeros", "config": {}}, "moving_variance_initializer": {"class_name": "Ones", "config": {}}, "trainable": true, "momentum": 0.999, "beta_initializer": {"class_name": "Zeros", "config": {}}, "center": true, "epsilon": 0.001, "gamma_initializer": {"class_name": "Ones", "config": {}}, "name": "block_4_project_BN", "gamma_regularizer": null, "axis": -1}}, {"name": "block_4_add", "inbound_nodes": [[["block_3_project_BN", 0, 0, {}], ["block_4_project_BN", 0, 0, {}]]], "class_name": "Add", "config": {"trainable": true, "name": "block_4_add"}}, {"name": "block_5_expand", "inbound_nodes": [[["block_4_add", 0, 0, {}]]], "class_name": "Conv2D", "config": {"activation": "linear", "kernel_regularizer": null, "kernel_initializer": {"class_name": "VarianceScaling", "config": {"scale": 1.0, "seed": null, "mode": "fan_avg", "distribution": "uniform"}}, "bias_constraint": null, "data_format": "channels_last", "name": "block_5_expand", "bias_regularizer": null, "bias_initializer": {"class_name": "Zeros", "config": {}}, "strides": [1, 1], "trainable": true, "kernel_constraint": null, "dilation_rate": [1, 1], "activity_regularizer": null, "use_bias": false, "filters": 288, "kernel_size": [1, 1], "padding": "same"}}, {"name": "block_5_expand_BN", "inbound_nodes": [[["block_5_expand", 0, 0, {}]]], "class_name": "BatchNormalization", "config": {"beta_regularizer": null, "scale": true, "gamma_constraint": null, "beta_constraint": null, "moving_mean_initializer": {"class_name": "Zeros", "config": {}}, "moving_variance_initializer": {"class_name": "Ones", "config": {}}, "trainable": true, "momentum": 0.999, "beta_initializer": {"class_name": "Zeros", "config": {}}, "center": true, "epsilon": 0.001, "gamma_initializer": {"class_name": "Ones", "config": {}}, "name": "block_5_expand_BN", "gamma_regularizer": null, "axis": -1}}, {"name": "block_5_expand_relu", "inbound_nodes": [[["block_5_expand_BN", 0, 0, {}]]], "class_name": "ReLU", "config": {"max_value": 6.0, "trainable": true, "name": "block_5_expand_relu", "threshold": 0.0, "negative_slope": 0.0}}, {"name": "block_5_depthwise", "inbound_nodes": [[["block_5_expand_relu", 0, 0, {}]]], "class_name": "DepthwiseConv2D", "config": {"activation": "linear", "activity_regularizer": null, "bias_constraint": null, "data_format": "channels_last", "depth_multiplier": 1, "bias_regularizer": null, "bias_initializer": {"class_name": "Zeros", "config": {}}, "depthwise_constraint": null, "trainable": true, "depthwise_regularizer": null, "dilation_rate": [1, 1], "strides": [1, 1], "depthwise_initializer": {"class_name": "VarianceScaling", "config": {"scale": 1.0, "seed": null, "mode": "fan_avg", "distribution": "uniform"}}, "use_bias": false, "name": "block_5_depthwise", "kernel_size": [3, 3], "padding": "same"}}, {"name": "block_5_depthwise_BN", "inbound_nodes": [[["block_5_depthwise", 0, 0, {}]]], "class_name": "BatchNormalization", "config": {"beta_regularizer": null, "scale": true, "gamma_constraint": null, "beta_constraint": null, "moving_mean_initializer": {"class_name": "Zeros", "config": {}}, "moving_variance_initializer": {"class_name": "Ones", "config": {}}, "trainable": true, "momentum": 0.999, "beta_initializer": {"class_name": "Zeros", "config": {}}, "center": true, "epsilon": 0.001, "gamma_initializer": {"class_name": "Ones", "config": {}}, "name": "block_5_depthwise_BN", "gamma_regularizer": null, "axis": -1}}, {"name": "block_5_depthwise_relu", "inbound_nodes": [[["block_5_depthwise_BN", 0, 0, {}]]], "class_name": "ReLU", "config": {"max_value": 6.0, "trainable": true, "name": "block_5_depthwise_relu", "threshold": 0.0, "negative_slope": 0.0}}, {"name": "block_5_project", "inbound_nodes": [[["block_5_depthwise_relu", 0, 0, {}]]], "class_name": "Conv2D", "config": {"activation": "linear", "kernel_regularizer": null, "kernel_initializer": {"class_name": "VarianceScaling", "config": {"scale": 1.0, "seed": null, "mode": "fan_avg", "distribution": "uniform"}}, "bias_constraint": null, "data_format": "channels_last", "name": "block_5_project", "bias_regularizer": null, "bias_initializer": {"class_name": "Zeros", "config": {}}, "strides": [1, 1], "trainable": true, "kernel_constraint": null, "dilation_rate": [1, 1], "activity_regularizer": null, "use_bias": false, "filters": 48, "kernel_size": [1, 1], "padding": "same"}}, {"name": "block_5_project_BN", "inbound_nodes": [[["block_5_project", 0, 0, {}]]], "class_name": "BatchNormalization", "config": {"beta_regularizer": null, "scale": true, "gamma_constraint": null, "beta_constraint": null, "moving_mean_initializer": {"class_name": "Zeros", "config": {}}, "moving_variance_initializer": {"class_name": "Ones", "config": {}}, "trainable": true, "momentum": 0.999, "beta_initializer": {"class_name": "Zeros", "config": {}}, "center": true, "epsilon": 0.001, "gamma_initializer": {"class_name": "Ones", "config": {}}, "name": "block_5_project_BN", "gamma_regularizer": null, "axis": -1}}, {"name": "block_5_add", "inbound_nodes": [[["block_4_add", 0, 0, {}], ["block_5_project_BN", 0, 0, {}]]], "class_name": "Add", "config": {"trainable": true, "name": "block_5_add"}}, {"name": "block_6_expand", "inbound_nodes": [[["block_5_add", 0, 0, {}]]], "class_name": "Conv2D", "config": {"activation": "linear", "kernel_regularizer": null, "kernel_initializer": {"class_name": "VarianceScaling", "config": {"scale": 1.0, "seed": null, "mode": "fan_avg", "distribution": "uniform"}}, "bias_constraint": null, "data_format": "channels_last", "name": "block_6_expand", "bias_regularizer": null, "bias_initializer": {"class_name": "Zeros", "config": {}}, "strides": [1, 1], "trainable": true, "kernel_constraint": null, "dilation_rate": [1, 1], "activity_regularizer": null, "use_bias": false, "filters": 288, "kernel_size": [1, 1], "padding": "same"}}, {"name": "block_6_expand_BN", "inbound_nodes": [[["block_6_expand", 0, 0, {}]]], "class_name": "BatchNormalization", "config": {"beta_regularizer": null, "scale": true, "gamma_constraint": null, "beta_constraint": null, "moving_mean_initializer": {"class_name": "Zeros", "config": {}}, "moving_variance_initializer": {"class_name": "Ones", "config": {}}, "trainable": true, "momentum": 0.999, "beta_initializer": {"class_name": "Zeros", "config": {}}, "center": true, "epsilon": 0.001, "gamma_initializer": {"class_name": "Ones", "config": {}}, "name": "block_6_expand_BN", "gamma_regularizer": null, "axis": -1}}, {"name": "block_6_expand_relu", "inbound_nodes": [[["block_6_expand_BN", 0, 0, {}]]], "class_name": "ReLU", "config": {"max_value": 6.0, "trainable": true, "name": "block_6_expand_relu", "threshold": 0.0, "negative_slope": 0.0}}, {"name": "block_6_pad", "inbound_nodes": [[["block_6_expand_relu", 0, 0, {}]]], "class_name": "ZeroPadding2D", "config": {"trainable": true, "data_format": "channels_last", "name": "block_6_pad", "padding": [[0, 1], [0, 1]]}}, {"name": "block_6_depthwise", "inbound_nodes": [[["block_6_pad", 0, 0, {}]]], "class_name": "DepthwiseConv2D", "config": {"activation": "linear", "activity_regularizer": null, "bias_constraint": null, "data_format": "channels_last", "depth_multiplier": 1, "bias_regularizer": null, "bias_initializer": {"class_name": "Zeros", "config": {}}, "depthwise_constraint": null, "trainable": true, "depthwise_regularizer": null, "dilation_rate": [1, 1], "strides": [2, 2], "depthwise_initializer": {"class_name": "VarianceScaling", "config": {"scale": 1.0, "seed": null, "mode": "fan_avg", "distribution": "uniform"}}, "use_bias": false, "name": "block_6_depthwise", "kernel_size": [3, 3], "padding": "valid"}}, {"name": "block_6_depthwise_BN", "inbound_nodes": [[["block_6_depthwise", 0, 0, {}]]], "class_name": "BatchNormalization", "config": {"beta_regularizer": null, "scale": true, "gamma_constraint": null, "beta_constraint": null, "moving_mean_initializer": {"class_name": "Zeros", "config": {}}, "moving_variance_initializer": {"class_name": "Ones", "config": {}}, "trainable": true, "momentum": 0.999, "beta_initializer": {"class_name": "Zeros", "config": {}}, "center": true, "epsilon": 0.001, "gamma_initializer": {"class_name": "Ones", "config": {}}, "name": "block_6_depthwise_BN", "gamma_regularizer": null, "axis": -1}}, {"name": "block_6_depthwise_relu", "inbound_nodes": [[["block_6_depthwise_BN", 0, 0, {}]]], "class_name": "ReLU", "config": {"max_value": 6.0, "trainable": true, "name": "block_6_depthwise_relu", "threshold": 0.0, "negative_slope": 0.0}}, {"name": "block_6_project", "inbound_nodes": [[["block_6_depthwise_relu", 0, 0, {}]]], "class_name": "Conv2D", "config": {"activation": "linear", "kernel_regularizer": null, "kernel_initializer": {"class_name": "VarianceScaling", "config": {"scale": 1.0, "seed": null, "mode": "fan_avg", "distribution": "uniform"}}, "bias_constraint": null, "data_format": "channels_last", "name": "block_6_project", "bias_regularizer": null, "bias_initializer": {"class_name": "Zeros", "config": {}}, "strides": [1, 1], "trainable": true, "kernel_constraint": null, "dilation_rate": [1, 1], "activity_regularizer": null, "use_bias": false, "filters": 96, "kernel_size": [1, 1], "padding": "same"}}, {"name": "block_6_project_BN", "inbound_nodes": [[["block_6_project", 0, 0, {}]]], "class_name": "BatchNormalization", "config": {"beta_regularizer": null, "scale": true, "gamma_constraint": null, "beta_constraint": null, "moving_mean_initializer": {"class_name": "Zeros", "config": {}}, "moving_variance_initializer": {"class_name": "Ones", "config": {}}, "trainable": true, "momentum": 0.999, "beta_initializer": {"class_name": "Zeros", "config": {}}, "center": true, "epsilon": 0.001, "gamma_initializer": {"class_name": "Ones", "config": {}}, "name": "block_6_project_BN", "gamma_regularizer": null, "axis": -1}}, {"name": "block_7_expand", "inbound_nodes": [[["block_6_project_BN", 0, 0, {}]]], "class_name": "Conv2D", "config": {"activation": "linear", "kernel_regularizer": null, "kernel_initializer": {"class_name": "VarianceScaling", "config": {"scale": 1.0, "seed": null, "mode": "fan_avg", "distribution": "uniform"}}, "bias_constraint": null, "data_format": "channels_last", "name": "block_7_expand", "bias_regularizer": null, "bias_initializer": {"class_name": "Zeros", "config": {}}, "strides": [1, 1], "trainable": true, "kernel_constraint": null, "dilation_rate": [1, 1], "activity_regularizer": null, "use_bias": false, "filters": 576, "kernel_size": [1, 1], "padding": "same"}}, {"name": "block_7_expand_BN", "inbound_nodes": [[["block_7_expand", 0, 0, {}]]], "class_name": "BatchNormalization", "config": {"beta_regularizer": null, "scale": true, "gamma_constraint": null, "beta_constraint": null, "moving_mean_initializer": {"class_name": "Zeros", "config": {}}, "moving_variance_initializer": {"class_name": "Ones", "config": {}}, "trainable": true, "momentum": 0.999, "beta_initializer": {"class_name": "Zeros", "config": {}}, "center": true, "epsilon": 0.001, "gamma_initializer": {"class_name": "Ones", "config": {}}, "name": "block_7_expand_BN", "gamma_regularizer": null, "axis": -1}}, {"name": "block_7_expand_relu", "inbound_nodes": [[["block_7_expand_BN", 0, 0, {}]]], "class_name": "ReLU", "config": {"max_value": 6.0, "trainable": true, "name": "block_7_expand_relu", "threshold": 0.0, "negative_slope": 0.0}}, {"name": "block_7_depthwise", "inbound_nodes": [[["block_7_expand_relu", 0, 0, {}]]], "class_name": "DepthwiseConv2D", "config": {"activation": "linear", "activity_regularizer": null, "bias_constraint": null, "data_format": "channels_last", "depth_multiplier": 1, "bias_regularizer": null, "bias_initializer": {"class_name": "Zeros", "config": {}}, "depthwise_constraint": null, "trainable": true, "depthwise_regularizer": null, "dilation_rate": [1, 1], "strides": [1, 1], "depthwise_initializer": {"class_name": "VarianceScaling", "config": {"scale": 1.0, "seed": null, "mode": "fan_avg", "distribution": "uniform"}}, "use_bias": false, "name": "block_7_depthwise", "kernel_size": [3, 3], "padding": "same"}}, {"name": "block_7_depthwise_BN", "inbound_nodes": [[["block_7_depthwise", 0, 0, {}]]], "class_name": "BatchNormalization", "config": {"beta_regularizer": null, "scale": true, "gamma_constraint": null, "beta_constraint": null, "moving_mean_initializer": {"class_name": "Zeros", "config": {}}, "moving_variance_initializer": {"class_name": "Ones", "config": {}}, "trainable": true, "momentum": 0.999, "beta_initializer": {"class_name": "Zeros", "config": {}}, "center": true, "epsilon": 0.001, "gamma_initializer": {"class_name": "Ones", "config": {}}, "name": "block_7_depthwise_BN", "gamma_regularizer": null, "axis": -1}}, {"name": "block_7_depthwise_relu", "inbound_nodes": [[["block_7_depthwise_BN", 0, 0, {}]]], "class_name": "ReLU", "config": {"max_value": 6.0, "trainable": true, "name": "block_7_depthwise_relu", "threshold": 0.0, "negative_slope": 0.0}}, {"name": "block_7_project", "inbound_nodes": [[["block_7_depthwise_relu", 0, 0, {}]]], "class_name": "Conv2D", "config": {"activation": "linear", "kernel_regularizer": null, "kernel_initializer": {"class_name": "VarianceScaling", "config": {"scale": 1.0, "seed": null, "mode": "fan_avg", "distribution": "uniform"}}, "bias_constraint": null, "data_format": "channels_last", "name": "block_7_project", "bias_regularizer": null, "bias_initializer": {"class_name": "Zeros", "config": {}}, "strides": [1, 1], "trainable": true, "kernel_constraint": null, "dilation_rate": [1, 1], "activity_regularizer": null, "use_bias": false, "filters": 96, "kernel_size": [1, 1], "padding": "same"}}, {"name": "block_7_project_BN", "inbound_nodes": [[["block_7_project", 0, 0, {}]]], "class_name": "BatchNormalization", "config": {"beta_regularizer": null, "scale": true, "gamma_constraint": null, "beta_constraint": null, "moving_mean_initializer": {"class_name": "Zeros", "config": {}}, "moving_variance_initializer": {"class_name": "Ones", "config": {}}, "trainable": true, "momentum": 0.999, "beta_initializer": {"class_name": "Zeros", "config": {}}, "center": true, "epsilon": 0.001, "gamma_initializer": {"class_name": "Ones", "config": {}}, "name": "block_7_project_BN", "gamma_regularizer": null, "axis": -1}}, {"name": "block_7_add", "inbound_nodes": [[["block_6_project_BN", 0, 0, {}], ["block_7_project_BN", 0, 0, {}]]], "class_name": "Add", "config": {"trainable": true, "name": "block_7_add"}}, {"name": "block_8_expand", "inbound_nodes": [[["block_7_add", 0, 0, {}]]], "class_name": "Conv2D", "config": {"activation": "linear", "kernel_regularizer": null, "kernel_initializer": {"class_name": "VarianceScaling", "config": {"scale": 1.0, "seed": null, "mode": "fan_avg", "distribution": "uniform"}}, "bias_constraint": null, "data_format": "channels_last", "name": "block_8_expand", "bias_regularizer": null, "bias_initializer": {"class_name": "Zeros", "config": {}}, "strides": [1, 1], "trainable": true, "kernel_constraint": null, "dilation_rate": [1, 1], "activity_regularizer": null, "use_bias": false, "filters": 576, "kernel_size": [1, 1], "padding": "same"}}, {"name": "block_8_expand_BN", "inbound_nodes": [[["block_8_expand", 0, 0, {}]]], "class_name": "BatchNormalization", "config": {"beta_regularizer": null, "scale": true, "gamma_constraint": null, "beta_constraint": null, "moving_mean_initializer": {"class_name": "Zeros", "config": {}}, "moving_variance_initializer": {"class_name": "Ones", "config": {}}, "trainable": true, "momentum": 0.999, "beta_initializer": {"class_name": "Zeros", "config": {}}, "center": true, "epsilon": 0.001, "gamma_initializer": {"class_name": "Ones", "config": {}}, "name": "block_8_expand_BN", "gamma_regularizer": null, "axis": -1}}, {"name": "block_8_expand_relu", "inbound_nodes": [[["block_8_expand_BN", 0, 0, {}]]], "class_name": "ReLU", "config": {"max_value": 6.0, "trainable": true, "name": "block_8_expand_relu", "threshold": 0.0, "negative_slope": 0.0}}, {"name": "block_8_depthwise", "inbound_nodes": [[["block_8_expand_relu", 0, 0, {}]]], "class_name": "DepthwiseConv2D", "config": {"activation": "linear", "activity_regularizer": null, "bias_constraint": null, "data_format": "channels_last", "depth_multiplier": 1, "bias_regularizer": null, "bias_initializer": {"class_name": "Zeros", "config": {}}, "depthwise_constraint": null, "trainable": true, "depthwise_regularizer": null, "dilation_rate": [1, 1], "strides": [1, 1], "depthwise_initializer": {"class_name": "VarianceScaling", "config": {"scale": 1.0, "seed": null, "mode": "fan_avg", "distribution": "uniform"}}, "use_bias": false, "name": "block_8_depthwise", "kernel_size": [3, 3], "padding": "same"}}, {"name": "block_8_depthwise_BN", "inbound_nodes": [[["block_8_depthwise", 0, 0, {}]]], "class_name": "BatchNormalization", "config": {"beta_regularizer": null, "scale": true, "gamma_constraint": null, "beta_constraint": null, "moving_mean_initializer": {"class_name": "Zeros", "config": {}}, "moving_variance_initializer": {"class_name": "Ones", "config": {}}, "trainable": true, "momentum": 0.999, "beta_initializer": {"class_name": "Zeros", "config": {}}, "center": true, "epsilon": 0.001, "gamma_initializer": {"class_name": "Ones", "config": {}}, "name": "block_8_depthwise_BN", "gamma_regularizer": null, "axis": -1}}, {"name": "block_8_depthwise_relu", "inbound_nodes": [[["block_8_depthwise_BN", 0, 0, {}]]], "class_name": "ReLU", "config": {"max_value": 6.0, "trainable": true, "name": "block_8_depthwise_relu", "threshold": 0.0, "negative_slope": 0.0}}, {"name": "block_8_project", "inbound_nodes": [[["block_8_depthwise_relu", 0, 0, {}]]], "class_name": "Conv2D", "config": {"activation": "linear", "kernel_regularizer": null, "kernel_initializer": {"class_name": "VarianceScaling", "config": {"scale": 1.0, "seed": null, "mode": "fan_avg", "distribution": "uniform"}}, "bias_constraint": null, "data_format": "channels_last", "name": "block_8_project", "bias_regularizer": null, "bias_initializer": {"class_name": "Zeros", "config": {}}, "strides": [1, 1], "trainable": true, "kernel_constraint": null, "dilation_rate": [1, 1], "activity_regularizer": null, "use_bias": false, "filters": 96, "kernel_size": [1, 1], "padding": "same"}}, {"name": "block_8_project_BN", "inbound_nodes": [[["block_8_project", 0, 0, {}]]], "class_name": "BatchNormalization", "config": {"beta_regularizer": null, "scale": true, "gamma_constraint": null, "beta_constraint": null, "moving_mean_initializer": {"class_name": "Zeros", "config": {}}, "moving_variance_initializer": {"class_name": "Ones", "config": {}}, "trainable": true, "momentum": 0.999, "beta_initializer": {"class_name": "Zeros", "config": {}}, "center": true, "epsilon": 0.001, "gamma_initializer": {"class_name": "Ones", "config": {}}, "name": "block_8_project_BN", "gamma_regularizer": null, "axis": -1}}, {"name": "block_8_add", "inbound_nodes": [[["block_7_add", 0, 0, {}], ["block_8_project_BN", 0, 0, {}]]], "class_name": "Add", "config": {"trainable": true, "name": "block_8_add"}}, {"name": "block_9_expand", "inbound_nodes": [[["block_8_add", 0, 0, {}]]], "class_name": "Conv2D", "config": {"activation": "linear", "kernel_regularizer": null, "kernel_initializer": {"class_name": "VarianceScaling", "config": {"scale": 1.0, "seed": null, "mode": "fan_avg", "distribution": "uniform"}}, "bias_constraint": null, "data_format": "channels_last", "name": "block_9_expand", "bias_regularizer": null, "bias_initializer": {"class_name": "Zeros", "config": {}}, "strides": [1, 1], "trainable": true, "kernel_constraint": null, "dilation_rate": [1, 1], "activity_regularizer": null, "use_bias": false, "filters": 576, "kernel_size": [1, 1], "padding": "same"}}, {"name": "block_9_expand_BN", "inbound_nodes": [[["block_9_expand", 0, 0, {}]]], "class_name": "BatchNormalization", "config": {"beta_regularizer": null, "scale": true, "gamma_constraint": null, "beta_constraint": null, "moving_mean_initializer": {"class_name": "Zeros", "config": {}}, "moving_variance_initializer": {"class_name": "Ones", "config": {}}, "trainable": true, "momentum": 0.999, "beta_initializer": {"class_name": "Zeros", "config": {}}, "center": true, "epsilon": 0.001, "gamma_initializer": {"class_name": "Ones", "config": {}}, "name": "block_9_expand_BN", "gamma_regularizer": null, "axis": -1}}, {"name": "block_9_expand_relu", "inbound_nodes": [[["block_9_expand_BN", 0, 0, {}]]], "class_name": "ReLU", "config": {"max_value": 6.0, "trainable": true, "name": "block_9_expand_relu", "threshold": 0.0, "negative_slope": 0.0}}, {"name": "block_9_depthwise", "inbound_nodes": [[["block_9_expand_relu", 0, 0, {}]]], "class_name": "DepthwiseConv2D", "config": {"activation": "linear", "activity_regularizer": null, "bias_constraint": null, "data_format": "channels_last", "depth_multiplier": 1, "bias_regularizer": null, "bias_initializer": {"class_name": "Zeros", "config": {}}, "depthwise_constraint": null, "trainable": true, "depthwise_regularizer": null, "dilation_rate": [1, 1], "strides": [1, 1], "depthwise_initializer": {"class_name": "VarianceScaling", "config": {"scale": 1.0, "seed": null, "mode": "fan_avg", "distribution": "uniform"}}, "use_bias": false, "name": "block_9_depthwise", "kernel_size": [3, 3], "padding": "same"}}, {"name": "block_9_depthwise_BN", "inbound_nodes": [[["block_9_depthwise", 0, 0, {}]]], "class_name": "BatchNormalization", "config": {"beta_regularizer": null, "scale": true, "gamma_constraint": null, "beta_constraint": null, "moving_mean_initializer": {"class_name": "Zeros", "config": {}}, "moving_variance_initializer": {"class_name": "Ones", "config": {}}, "trainable": true, "momentum": 0.999, "beta_initializer": {"class_name": "Zeros", "config": {}}, "center": true, "epsilon": 0.001, "gamma_initializer": {"class_name": "Ones", "config": {}}, "name": "block_9_depthwise_BN", "gamma_regularizer": null, "axis": -1}}, {"name": "block_9_depthwise_relu", "inbound_nodes": [[["block_9_depthwise_BN", 0, 0, {}]]], "class_name": "ReLU", "config": {"max_value": 6.0, "trainable": true, "name": "block_9_depthwise_relu", "threshold": 0.0, "negative_slope": 0.0}}, {"name": "block_9_project", "inbound_nodes": [[["block_9_depthwise_relu", 0, 0, {}]]], "class_name": "Conv2D", "config": {"activation": "linear", "kernel_regularizer": null, "kernel_initializer": {"class_name": "VarianceScaling", "config": {"scale": 1.0, "seed": null, "mode": "fan_avg", "distribution": "uniform"}}, "bias_constraint": null, "data_format": "channels_last", "name": "block_9_project", "bias_regularizer": null, "bias_initializer": {"class_name": "Zeros", "config": {}}, "strides": [1, 1], "trainable": true, "kernel_constraint": null, "dilation_rate": [1, 1], "activity_regularizer": null, "use_bias": false, "filters": 96, "kernel_size": [1, 1], "padding": "same"}}, {"name": "block_9_project_BN", "inbound_nodes": [[["block_9_project", 0, 0, {}]]], "class_name": "BatchNormalization", "config": {"beta_regularizer": null, "scale": true, "gamma_constraint": null, "beta_constraint": null, "moving_mean_initializer": {"class_name": "Zeros", "config": {}}, "moving_variance_initializer": {"class_name": "Ones", "config": {}}, "trainable": true, "momentum": 0.999, "beta_initializer": {"class_name": "Zeros", "config": {}}, "center": true, "epsilon": 0.001, "gamma_initializer": {"class_name": "Ones", "config": {}}, "name": "block_9_project_BN", "gamma_regularizer": null, "axis": -1}}, {"name": "block_9_add", "inbound_nodes": [[["block_8_add", 0, 0, {}], ["block_9_project_BN", 0, 0, {}]]], "class_name": "Add", "config": {"trainable": true, "name": "block_9_add"}}, {"name": "block_10_expand", "inbound_nodes": [[["block_9_add", 0, 0, {}]]], "class_name": "Conv2D", "config": {"activation": "linear", "kernel_regularizer": null, "kernel_initializer": {"class_name": "VarianceScaling", "config": {"scale": 1.0, "seed": null, "mode": "fan_avg", "distribution": "uniform"}}, "bias_constraint": null, "data_format": "channels_last", "name": "block_10_expand", "bias_regularizer": null, "bias_initializer": {"class_name": "Zeros", "config": {}}, "strides": [1, 1], "trainable": true, "kernel_constraint": null, "dilation_rate": [1, 1], "activity_regularizer": null, "use_bias": false, "filters": 576, "kernel_size": [1, 1], "padding": "same"}}, {"name": "block_10_expand_BN", "inbound_nodes": [[["block_10_expand", 0, 0, {}]]], "class_name": "BatchNormalization", "config": {"beta_regularizer": null, "scale": true, "gamma_constraint": null, "beta_constraint": null, "moving_mean_initializer": {"class_name": "Zeros", "config": {}}, "moving_variance_initializer": {"class_name": "Ones", "config": {}}, "trainable": true, "momentum": 0.999, "beta_initializer": {"class_name": "Zeros", "config": {}}, "center": true, "epsilon": 0.001, "gamma_initializer": {"class_name": "Ones", "config": {}}, "name": "block_10_expand_BN", "gamma_regularizer": null, "axis": -1}}, {"name": "block_10_expand_relu", "inbound_nodes": [[["block_10_expand_BN", 0, 0, {}]]], "class_name": "ReLU", "config": {"max_value": 6.0, "trainable": true, "name": "block_10_expand_relu", "threshold": 0.0, "negative_slope": 0.0}}, {"name": "block_10_depthwise", "inbound_nodes": [[["block_10_expand_relu", 0, 0, {}]]], "class_name": "DepthwiseConv2D", "config": {"activation": "linear", "activity_regularizer": null, "bias_constraint": null, "data_format": "channels_last", "depth_multiplier": 1, "bias_regularizer": null, "bias_initializer": {"class_name": "Zeros", "config": {}}, "depthwise_constraint": null, "trainable": true, "depthwise_regularizer": null, "dilation_rate": [1, 1], "strides": [1, 1], "depthwise_initializer": {"class_name": "VarianceScaling", "config": {"scale": 1.0, "seed": null, "mode": "fan_avg", "distribution": "uniform"}}, "use_bias": false, "name": "block_10_depthwise", "kernel_size": [3, 3], "padding": "same"}}, {"name": "block_10_depthwise_BN", "inbound_nodes": [[["block_10_depthwise", 0, 0, {}]]], "class_name": "BatchNormalization", "config": {"beta_regularizer": null, "scale": true, "gamma_constraint": null, "beta_constraint": null, "moving_mean_initializer": {"class_name": "Zeros", "config": {}}, "moving_variance_initializer": {"class_name": "Ones", "config": {}}, "trainable": true, "momentum": 0.999, "beta_initializer": {"class_name": "Zeros", "config": {}}, "center": true, "epsilon": 0.001, "gamma_initializer": {"class_name": "Ones", "config": {}}, "name": "block_10_depthwise_BN", "gamma_regularizer": null, "axis": -1}}, {"name": "block_10_depthwise_relu", "inbound_nodes": [[["block_10_depthwise_BN", 0, 0, {}]]], "class_name": "ReLU", "config": {"max_value": 6.0, "trainable": true, "name": "block_10_depthwise_relu", "threshold": 0.0, "negative_slope": 0.0}}, {"name": "block_10_project", "inbound_nodes": [[["block_10_depthwise_relu", 0, 0, {}]]], "class_name": "Conv2D", "config": {"activation": "linear", "kernel_regularizer": null, "kernel_initializer": {"class_name": "VarianceScaling", "config": {"scale": 1.0, "seed": null, "mode": "fan_avg", "distribution": "uniform"}}, "bias_constraint": null, "data_format": "channels_last", "name": "block_10_project", "bias_regularizer": null, "bias_initializer": {"class_name": "Zeros", "config": {}}, "strides": [1, 1], "trainable": true, "kernel_constraint": null, "dilation_rate": [1, 1], "activity_regularizer": null, "use_bias": false, "filters": 144, "kernel_size": [1, 1], "padding": "same"}}, {"name": "block_10_project_BN", "inbound_nodes": [[["block_10_project", 0, 0, {}]]], "class_name": "BatchNormalization", "config": {"beta_regularizer": null, "scale": true, "gamma_constraint": null, "beta_constraint": null, "moving_mean_initializer": {"class_name": "Zeros", "config": {}}, "moving_variance_initializer": {"class_name": "Ones", "config": {}}, "trainable": true, "momentum": 0.999, "beta_initializer": {"class_name": "Zeros", "config": {}}, "center": true, "epsilon": 0.001, "gamma_initializer": {"class_name": "Ones", "config": {}}, "name": "block_10_project_BN", "gamma_regularizer": null, "axis": -1}}, {"name": "block_11_expand", "inbound_nodes": [[["block_10_project_BN", 0, 0, {}]]], "class_name": "Conv2D", "config": {"activation": "linear", "kernel_regularizer": null, "kernel_initializer": {"class_name": "VarianceScaling", "config": {"scale": 1.0, "seed": null, "mode": "fan_avg", "distribution": "uniform"}}, "bias_constraint": null, "data_format": "channels_last", "name": "block_11_expand", "bias_regularizer": null, "bias_initializer": {"class_name": "Zeros", "config": {}}, "strides": [1, 1], "trainable": true, "kernel_constraint": null, "dilation_rate": [1, 1], "activity_regularizer": null, "use_bias": false, "filters": 864, "kernel_size": [1, 1], "padding": "same"}}, {"name": "block_11_expand_BN", "inbound_nodes": [[["block_11_expand", 0, 0, {}]]], "class_name": "BatchNormalization", "config": {"beta_regularizer": null, "scale": true, "gamma_constraint": null, "beta_constraint": null, "moving_mean_initializer": {"class_name": "Zeros", "config": {}}, "moving_variance_initializer": {"class_name": "Ones", "config": {}}, "trainable": true, "momentum": 0.999, "beta_initializer": {"class_name": "Zeros", "config": {}}, "center": true, "epsilon": 0.001, "gamma_initializer": {"class_name": "Ones", "config": {}}, "name": "block_11_expand_BN", "gamma_regularizer": null, "axis": -1}}, {"name": "block_11_expand_relu", "inbound_nodes": [[["block_11_expand_BN", 0, 0, {}]]], "class_name": "ReLU", "config": {"max_value": 6.0, "trainable": true, "name": "block_11_expand_relu", "threshold": 0.0, "negative_slope": 0.0}}, {"name": "block_11_depthwise", "inbound_nodes": [[["block_11_expand_relu", 0, 0, {}]]], "class_name": "DepthwiseConv2D", "config": {"activation": "linear", "activity_regularizer": null, "bias_constraint": null, "data_format": "channels_last", "depth_multiplier": 1, "bias_regularizer": null, "bias_initializer": {"class_name": "Zeros", "config": {}}, "depthwise_constraint": null, "trainable": true, "depthwise_regularizer": null, "dilation_rate": [1, 1], "strides": [1, 1], "depthwise_initializer": {"class_name": "VarianceScaling", "config": {"scale": 1.0, "seed": null, "mode": "fan_avg", "distribution": "uniform"}}, "use_bias": false, "name": "block_11_depthwise", "kernel_size": [3, 3], "padding": "same"}}, {"name": "block_11_depthwise_BN", "inbound_nodes": [[["block_11_depthwise", 0, 0, {}]]], "class_name": "BatchNormalization", "config": {"beta_regularizer": null, "scale": true, "gamma_constraint": null, "beta_constraint": null, "moving_mean_initializer": {"class_name": "Zeros", "config": {}}, "moving_variance_initializer": {"class_name": "Ones", "config": {}}, "trainable": true, "momentum": 0.999, "beta_initializer": {"class_name": "Zeros", "config": {}}, "center": true, "epsilon": 0.001, "gamma_initializer": {"class_name": "Ones", "config": {}}, "name": "block_11_depthwise_BN", "gamma_regularizer": null, "axis": -1}}, {"name": "block_11_depthwise_relu", "inbound_nodes": [[["block_11_depthwise_BN", 0, 0, {}]]], "class_name": "ReLU", "config": {"max_value": 6.0, "trainable": true, "name": "block_11_depthwise_relu", "threshold": 0.0, "negative_slope": 0.0}}, {"name": "block_11_project", "inbound_nodes": [[["block_11_depthwise_relu", 0, 0, {}]]], "class_name": "Conv2D", "config": {"activation": "linear", "kernel_regularizer": null, "kernel_initializer": {"class_name": "VarianceScaling", "config": {"scale": 1.0, "seed": null, "mode": "fan_avg", "distribution": "uniform"}}, "bias_constraint": null, "data_format": "channels_last", "name": "block_11_project", "bias_regularizer": null, "bias_initializer": {"class_name": "Zeros", "config": {}}, "strides": [1, 1], "trainable": true, "kernel_constraint": null, "dilation_rate": [1, 1], "activity_regularizer": null, "use_bias": false, "filters": 144, "kernel_size": [1, 1], "padding": "same"}}, {"name": "block_11_project_BN", "inbound_nodes": [[["block_11_project", 0, 0, {}]]], "class_name": "BatchNormalization", "config": {"beta_regularizer": null, "scale": true, "gamma_constraint": null, "beta_constraint": null, "moving_mean_initializer": {"class_name": "Zeros", "config": {}}, "moving_variance_initializer": {"class_name": "Ones", "config": {}}, "trainable": true, "momentum": 0.999, "beta_initializer": {"class_name": "Zeros", "config": {}}, "center": true, "epsilon": 0.001, "gamma_initializer": {"class_name": "Ones", "config": {}}, "name": "block_11_project_BN", "gamma_regularizer": null, "axis": -1}}, {"name": "block_11_add", "inbound_nodes": [[["block_10_project_BN", 0, 0, {}], ["block_11_project_BN", 0, 0, {}]]], "class_name": "Add", "config": {"trainable": true, "name": "block_11_add"}}, {"name": "block_12_expand", "inbound_nodes": [[["block_11_add", 0, 0, {}]]], "class_name": "Conv2D", "config": {"activation": "linear", "kernel_regularizer": null, "kernel_initializer": {"class_name": "VarianceScaling", "config": {"scale": 1.0, "seed": null, "mode": "fan_avg", "distribution": "uniform"}}, "bias_constraint": null, "data_format": "channels_last", "name": "block_12_expand", "bias_regularizer": null, "bias_initializer": {"class_name": "Zeros", "config": {}}, "strides": [1, 1], "trainable": true, "kernel_constraint": null, "dilation_rate": [1, 1], "activity_regularizer": null, "use_bias": false, "filters": 864, "kernel_size": [1, 1], "padding": "same"}}, {"name": "block_12_expand_BN", "inbound_nodes": [[["block_12_expand", 0, 0, {}]]], "class_name": "BatchNormalization", "config": {"beta_regularizer": null, "scale": true, "gamma_constraint": null, "beta_constraint": null, "moving_mean_initializer": {"class_name": "Zeros", "config": {}}, "moving_variance_initializer": {"class_name": "Ones", "config": {}}, "trainable": true, "momentum": 0.999, "beta_initializer": {"class_name": "Zeros", "config": {}}, "center": true, "epsilon": 0.001, "gamma_initializer": {"class_name": "Ones", "config": {}}, "name": "block_12_expand_BN", "gamma_regularizer": null, "axis": -1}}, {"name": "block_12_expand_relu", "inbound_nodes": [[["block_12_expand_BN", 0, 0, {}]]], "class_name": "ReLU", "config": {"max_value": 6.0, "trainable": true, "name": "block_12_expand_relu", "threshold": 0.0, "negative_slope": 0.0}}, {"name": "block_12_depthwise", "inbound_nodes": [[["block_12_expand_relu", 0, 0, {}]]], "class_name": "DepthwiseConv2D", "config": {"activation": "linear", "activity_regularizer": null, "bias_constraint": null, "data_format": "channels_last", "depth_multiplier": 1, "bias_regularizer": null, "bias_initializer": {"class_name": "Zeros", "config": {}}, "depthwise_constraint": null, "trainable": true, "depthwise_regularizer": null, "dilation_rate": [1, 1], "strides": [1, 1], "depthwise_initializer": {"class_name": "VarianceScaling", "config": {"scale": 1.0, "seed": null, "mode": "fan_avg", "distribution": "uniform"}}, "use_bias": false, "name": "block_12_depthwise", "kernel_size": [3, 3], "padding": "same"}}, {"name": "block_12_depthwise_BN", "inbound_nodes": [[["block_12_depthwise", 0, 0, {}]]], "class_name": "BatchNormalization", "config": {"beta_regularizer": null, "scale": true, "gamma_constraint": null, "beta_constraint": null, "moving_mean_initializer": {"class_name": "Zeros", "config": {}}, "moving_variance_initializer": {"class_name": "Ones", "config": {}}, "trainable": true, "momentum": 0.999, "beta_initializer": {"class_name": "Zeros", "config": {}}, "center": true, "epsilon": 0.001, "gamma_initializer": {"class_name": "Ones", "config": {}}, "name": "block_12_depthwise_BN", "gamma_regularizer": null, "axis": -1}}, {"name": "block_12_depthwise_relu", "inbound_nodes": [[["block_12_depthwise_BN", 0, 0, {}]]], "class_name": "ReLU", "config": {"max_value": 6.0, "trainable": true, "name": "block_12_depthwise_relu", "threshold": 0.0, "negative_slope": 0.0}}, {"name": "block_12_project", "inbound_nodes": [[["block_12_depthwise_relu", 0, 0, {}]]], "class_name": "Conv2D", "config": {"activation": "linear", "kernel_regularizer": null, "kernel_initializer": {"class_name": "VarianceScaling", "config": {"scale": 1.0, "seed": null, "mode": "fan_avg", "distribution": "uniform"}}, "bias_constraint": null, "data_format": "channels_last", "name": "block_12_project", "bias_regularizer": null, "bias_initializer": {"class_name": "Zeros", "config": {}}, "strides": [1, 1], "trainable": true, "kernel_constraint": null, "dilation_rate": [1, 1], "activity_regularizer": null, "use_bias": false, "filters": 144, "kernel_size": [1, 1], "padding": "same"}}, {"name": "block_12_project_BN", "inbound_nodes": [[["block_12_project", 0, 0, {}]]], "class_name": "BatchNormalization", "config": {"beta_regularizer": null, "scale": true, "gamma_constraint": null, "beta_constraint": null, "moving_mean_initializer": {"class_name": "Zeros", "config": {}}, "moving_variance_initializer": {"class_name": "Ones", "config": {}}, "trainable": true, "momentum": 0.999, "beta_initializer": {"class_name": "Zeros", "config": {}}, "center": true, "epsilon": 0.001, "gamma_initializer": {"class_name": "Ones", "config": {}}, "name": "block_12_project_BN", "gamma_regularizer": null, "axis": -1}}, {"name": "block_12_add", "inbound_nodes": [[["block_11_add", 0, 0, {}], ["block_12_project_BN", 0, 0, {}]]], "class_name": "Add", "config": {"trainable": true, "name": "block_12_add"}}, {"name": "block_13_expand", "inbound_nodes": [[["block_12_add", 0, 0, {}]]], "class_name": "Conv2D", "config": {"activation": "linear", "kernel_regularizer": null, "kernel_initializer": {"class_name": "VarianceScaling", "config": {"scale": 1.0, "seed": null, "mode": "fan_avg", "distribution": "uniform"}}, "bias_constraint": null, "data_format": "channels_last", "name": "block_13_expand", "bias_regularizer": null, "bias_initializer": {"class_name": "Zeros", "config": {}}, "strides": [1, 1], "trainable": true, "kernel_constraint": null, "dilation_rate": [1, 1], "activity_regularizer": null, "use_bias": false, "filters": 864, "kernel_size": [1, 1], "padding": "same"}}, {"name": "block_13_expand_BN", "inbound_nodes": [[["block_13_expand", 0, 0, {}]]], "class_name": "BatchNormalization", "config": {"beta_regularizer": null, "scale": true, "gamma_constraint": null, "beta_constraint": null, "moving_mean_initializer": {"class_name": "Zeros", "config": {}}, "moving_variance_initializer": {"class_name": "Ones", "config": {}}, "trainable": true, "momentum": 0.999, "beta_initializer": {"class_name": "Zeros", "config": {}}, "center": true, "epsilon": 0.001, "gamma_initializer": {"class_name": "Ones", "config": {}}, "name": "block_13_expand_BN", "gamma_regularizer": null, "axis": -1}}, {"name": "block_13_expand_relu", "inbound_nodes": [[["block_13_expand_BN", 0, 0, {}]]], "class_name": "ReLU", "config": {"max_value": 6.0, "trainable": true, "name": "block_13_expand_relu", "threshold": 0.0, "negative_slope": 0.0}}, {"name": "block_13_pad", "inbound_nodes": [[["block_13_expand_relu", 0, 0, {}]]], "class_name": "ZeroPadding2D", "config": {"trainable": true, "data_format": "channels_last", "name": "block_13_pad", "padding": [[0, 1], [0, 1]]}}, {"name": "block_13_depthwise", "inbound_nodes": [[["block_13_pad", 0, 0, {}]]], "class_name": "DepthwiseConv2D", "config": {"activation": "linear", "activity_regularizer": null, "bias_constraint": null, "data_format": "channels_last", "depth_multiplier": 1, "bias_regularizer": null, "bias_initializer": {"class_name": "Zeros", "config": {}}, "depthwise_constraint": null, "trainable": true, "depthwise_regularizer": null, "dilation_rate": [1, 1], "strides": [2, 2], "depthwise_initializer": {"class_name": "VarianceScaling", "config": {"scale": 1.0, "seed": null, "mode": "fan_avg", "distribution": "uniform"}}, "use_bias": false, "name": "block_13_depthwise", "kernel_size": [3, 3], "padding": "valid"}}, {"name": "block_13_depthwise_BN", "inbound_nodes": [[["block_13_depthwise", 0, 0, {}]]], "class_name": "BatchNormalization", "config": {"beta_regularizer": null, "scale": true, "gamma_constraint": null, "beta_constraint": null, "moving_mean_initializer": {"class_name": "Zeros", "config": {}}, "moving_variance_initializer": {"class_name": "Ones", "config": {}}, "trainable": true, "momentum": 0.999, "beta_initializer": {"class_name": "Zeros", "config": {}}, "center": true, "epsilon": 0.001, "gamma_initializer": {"class_name": "Ones", "config": {}}, "name": "block_13_depthwise_BN", "gamma_regularizer": null, "axis": -1}}, {"name": "block_13_depthwise_relu", "inbound_nodes": [[["block_13_depthwise_BN", 0, 0, {}]]], "class_name": "ReLU", "config": {"max_value": 6.0, "trainable": true, "name": "block_13_depthwise_relu", "threshold": 0.0, "negative_slope": 0.0}}, {"name": "block_13_project", "inbound_nodes": [[["block_13_depthwise_relu", 0, 0, {}]]], "class_name": "Conv2D", "config": {"activation": "linear", "kernel_regularizer": null, "kernel_initializer": {"class_name": "VarianceScaling", "config": {"scale": 1.0, "seed": null, "mode": "fan_avg", "distribution": "uniform"}}, "bias_constraint": null, "data_format": "channels_last", "name": "block_13_project", "bias_regularizer": null, "bias_initializer": {"class_name": "Zeros", "config": {}}, "strides": [1, 1], "trainable": true, "kernel_constraint": null, "dilation_rate": [1, 1], "activity_regularizer": null, "use_bias": false, "filters": 240, "kernel_size": [1, 1], "padding": "same"}}, {"name": "block_13_project_BN", "inbound_nodes": [[["block_13_project", 0, 0, {}]]], "class_name": "BatchNormalization", "config": {"beta_regularizer": null, "scale": true, "gamma_constraint": null, "beta_constraint": null, "moving_mean_initializer": {"class_name": "Zeros", "config": {}}, "moving_variance_initializer": {"class_name": "Ones", "config": {}}, "trainable": true, "momentum": 0.999, "beta_initializer": {"class_name": "Zeros", "config": {}}, "center": true, "epsilon": 0.001, "gamma_initializer": {"class_name": "Ones", "config": {}}, "name": "block_13_project_BN", "gamma_regularizer": null, "axis": -1}}, {"name": "block_14_expand", "inbound_nodes": [[["block_13_project_BN", 0, 0, {}]]], "class_name": "Conv2D", "config": {"activation": "linear", "kernel_regularizer": null, "kernel_initializer": {"class_name": "VarianceScaling", "config": {"scale": 1.0, "seed": null, "mode": "fan_avg", "distribution": "uniform"}}, "bias_constraint": null, "data_format": "channels_last", "name": "block_14_expand", "bias_regularizer": null, "bias_initializer": {"class_name": "Zeros", "config": {}}, "strides": [1, 1], "trainable": true, "kernel_constraint": null, "dilation_rate": [1, 1], "activity_regularizer": null, "use_bias": false, "filters": 1440, "kernel_size": [1, 1], "padding": "same"}}, {"name": "block_14_expand_BN", "inbound_nodes": [[["block_14_expand", 0, 0, {}]]], "class_name": "BatchNormalization", "config": {"beta_regularizer": null, "scale": true, "gamma_constraint": null, "beta_constraint": null, "moving_mean_initializer": {"class_name": "Zeros", "config": {}}, "moving_variance_initializer": {"class_name": "Ones", "config": {}}, "trainable": true, "momentum": 0.999, "beta_initializer": {"class_name": "Zeros", "config": {}}, "center": true, "epsilon": 0.001, "gamma_initializer": {"class_name": "Ones", "config": {}}, "name": "block_14_expand_BN", "gamma_regularizer": null, "axis": -1}}, {"name": "block_14_expand_relu", "inbound_nodes": [[["block_14_expand_BN", 0, 0, {}]]], "class_name": "ReLU", "config": {"max_value": 6.0, "trainable": true, "name": "block_14_expand_relu", "threshold": 0.0, "negative_slope": 0.0}}, {"name": "block_14_depthwise", "inbound_nodes": [[["block_14_expand_relu", 0, 0, {}]]], "class_name": "DepthwiseConv2D", "config": {"activation": "linear", "activity_regularizer": null, "bias_constraint": null, "data_format": "channels_last", "depth_multiplier": 1, "bias_regularizer": null, "bias_initializer": {"class_name": "Zeros", "config": {}}, "depthwise_constraint": null, "trainable": true, "depthwise_regularizer": null, "dilation_rate": [1, 1], "strides": [1, 1], "depthwise_initializer": {"class_name": "VarianceScaling", "config": {"scale": 1.0, "seed": null, "mode": "fan_avg", "distribution": "uniform"}}, "use_bias": false, "name": "block_14_depthwise", "kernel_size": [3, 3], "padding": "same"}}, {"name": "block_14_depthwise_BN", "inbound_nodes": [[["block_14_depthwise", 0, 0, {}]]], "class_name": "BatchNormalization", "config": {"beta_regularizer": null, "scale": true, "gamma_constraint": null, "beta_constraint": null, "moving_mean_initializer": {"class_name": "Zeros", "config": {}}, "moving_variance_initializer": {"class_name": "Ones", "config": {}}, "trainable": true, "momentum": 0.999, "beta_initializer": {"class_name": "Zeros", "config": {}}, "center": true, "epsilon": 0.001, "gamma_initializer": {"class_name": "Ones", "config": {}}, "name": "block_14_depthwise_BN", "gamma_regularizer": null, "axis": -1}}, {"name": "block_14_depthwise_relu", "inbound_nodes": [[["block_14_depthwise_BN", 0, 0, {}]]], "class_name": "ReLU", "config": {"max_value": 6.0, "trainable": true, "name": "block_14_depthwise_relu", "threshold": 0.0, "negative_slope": 0.0}}, {"name": "block_14_project", "inbound_nodes": [[["block_14_depthwise_relu", 0, 0, {}]]], "class_name": "Conv2D", "config": {"activation": "linear", "kernel_regularizer": null, "kernel_initializer": {"class_name": "VarianceScaling", "config": {"scale": 1.0, "seed": null, "mode": "fan_avg", "distribution": "uniform"}}, "bias_constraint": null, "data_format": "channels_last", "name": "block_14_project", "bias_regularizer": null, "bias_initializer": {"class_name": "Zeros", "config": {}}, "strides": [1, 1], "trainable": true, "kernel_constraint": null, "dilation_rate": [1, 1], "activity_regularizer": null, "use_bias": false, "filters": 240, "kernel_size": [1, 1], "padding": "same"}}, {"name": "block_14_project_BN", "inbound_nodes": [[["block_14_project", 0, 0, {}]]], "class_name": "BatchNormalization", "config": {"beta_regularizer": null, "scale": true, "gamma_constraint": null, "beta_constraint": null, "moving_mean_initializer": {"class_name": "Zeros", "config": {}}, "moving_variance_initializer": {"class_name": "Ones", "config": {}}, "trainable": true, "momentum": 0.999, "beta_initializer": {"class_name": "Zeros", "config": {}}, "center": true, "epsilon": 0.001, "gamma_initializer": {"class_name": "Ones", "config": {}}, "name": "block_14_project_BN", "gamma_regularizer": null, "axis": -1}}, {"name": "block_14_add", "inbound_nodes": [[["block_13_project_BN", 0, 0, {}], ["block_14_project_BN", 0, 0, {}]]], "class_name": "Add", "config": {"trainable": true, "name": "block_14_add"}}, {"name": "block_15_expand", "inbound_nodes": [[["block_14_add", 0, 0, {}]]], "class_name": "Conv2D", "config": {"activation": "linear", "kernel_regularizer": null, "kernel_initializer": {"class_name": "VarianceScaling", "config": {"scale": 1.0, "seed": null, "mode": "fan_avg", "distribution": "uniform"}}, "bias_constraint": null, "data_format": "channels_last", "name": "block_15_expand", "bias_regularizer": null, "bias_initializer": {"class_name": "Zeros", "config": {}}, "strides": [1, 1], "trainable": true, "kernel_constraint": null, "dilation_rate": [1, 1], "activity_regularizer": null, "use_bias": false, "filters": 1440, "kernel_size": [1, 1], "padding": "same"}}, {"name": "block_15_expand_BN", "inbound_nodes": [[["block_15_expand", 0, 0, {}]]], "class_name": "BatchNormalization", "config": {"beta_regularizer": null, "scale": true, "gamma_constraint": null, "beta_constraint": null, "moving_mean_initializer": {"class_name": "Zeros", "config": {}}, "moving_variance_initializer": {"class_name": "Ones", "config": {}}, "trainable": true, "momentum": 0.999, "beta_initializer": {"class_name": "Zeros", "config": {}}, "center": true, "epsilon": 0.001, "gamma_initializer": {"class_name": "Ones", "config": {}}, "name": "block_15_expand_BN", "gamma_regularizer": null, "axis": -1}}, {"name": "block_15_expand_relu", "inbound_nodes": [[["block_15_expand_BN", 0, 0, {}]]], "class_name": "ReLU", "config": {"max_value": 6.0, "trainable": true, "name": "block_15_expand_relu", "threshold": 0.0, "negative_slope": 0.0}}, {"name": "block_15_depthwise", "inbound_nodes": [[["block_15_expand_relu", 0, 0, {}]]], "class_name": "DepthwiseConv2D", "config": {"activation": "linear", "activity_regularizer": null, "bias_constraint": null, "data_format": "channels_last", "depth_multiplier": 1, "bias_regularizer": null, "bias_initializer": {"class_name": "Zeros", "config": {}}, "depthwise_constraint": null, "trainable": true, "depthwise_regularizer": null, "dilation_rate": [1, 1], "strides": [1, 1], "depthwise_initializer": {"class_name": "VarianceScaling", "config": {"scale": 1.0, "seed": null, "mode": "fan_avg", "distribution": "uniform"}}, "use_bias": false, "name": "block_15_depthwise", "kernel_size": [3, 3], "padding": "same"}}, {"name": "block_15_depthwise_BN", "inbound_nodes": [[["block_15_depthwise", 0, 0, {}]]], "class_name": "BatchNormalization", "config": {"beta_regularizer": null, "scale": true, "gamma_constraint": null, "beta_constraint": null, "moving_mean_initializer": {"class_name": "Zeros", "config": {}}, "moving_variance_initializer": {"class_name": "Ones", "config": {}}, "trainable": true, "momentum": 0.999, "beta_initializer": {"class_name": "Zeros", "config": {}}, "center": true, "epsilon": 0.001, "gamma_initializer": {"class_name": "Ones", "config": {}}, "name": "block_15_depthwise_BN", "gamma_regularizer": null, "axis": -1}}, {"name": "block_15_depthwise_relu", "inbound_nodes": [[["block_15_depthwise_BN", 0, 0, {}]]], "class_name": "ReLU", "config": {"max_value": 6.0, "trainable": true, "name": "block_15_depthwise_relu", "threshold": 0.0, "negative_slope": 0.0}}, {"name": "block_15_project", "inbound_nodes": [[["block_15_depthwise_relu", 0, 0, {}]]], "class_name": "Conv2D", "config": {"activation": "linear", "kernel_regularizer": null, "kernel_initializer": {"class_name": "VarianceScaling", "config": {"scale": 1.0, "seed": null, "mode": "fan_avg", "distribution": "uniform"}}, "bias_constraint": null, "data_format": "channels_last", "name": "block_15_project", "bias_regularizer": null, "bias_initializer": {"class_name": "Zeros", "config": {}}, "strides": [1, 1], "trainable": true, "kernel_constraint": null, "dilation_rate": [1, 1], "activity_regularizer": null, "use_bias": false, "filters": 240, "kernel_size": [1, 1], "padding": "same"}}, {"name": "block_15_project_BN", "inbound_nodes": [[["block_15_project", 0, 0, {}]]], "class_name": "BatchNormalization", "config": {"beta_regularizer": null, "scale": true, "gamma_constraint": null, "beta_constraint": null, "moving_mean_initializer": {"class_name": "Zeros", "config": {}}, "moving_variance_initializer": {"class_name": "Ones", "config": {}}, "trainable": true, "momentum": 0.999, "beta_initializer": {"class_name": "Zeros", "config": {}}, "center": true, "epsilon": 0.001, "gamma_initializer": {"class_name": "Ones", "config": {}}, "name": "block_15_project_BN", "gamma_regularizer": null, "axis": -1}}, {"name": "block_15_add", "inbound_nodes": [[["block_14_add", 0, 0, {}], ["block_15_project_BN", 0, 0, {}]]], "class_name": "Add", "config": {"trainable": true, "name": "block_15_add"}}, {"name": "block_16_expand", "inbound_nodes": [[["block_15_add", 0, 0, {}]]], "class_name": "Conv2D", "config": {"activation": "linear", "kernel_regularizer": null, "kernel_initializer": {"class_name": "VarianceScaling", "config": {"scale": 1.0, "seed": null, "mode": "fan_avg", "distribution": "uniform"}}, "bias_constraint": null, "data_format": "channels_last", "name": "block_16_expand", "bias_regularizer": null, "bias_initializer": {"class_name": "Zeros", "config": {}}, "strides": [1, 1], "trainable": true, "kernel_constraint": null, "dilation_rate": [1, 1], "activity_regularizer": null, "use_bias": false, "filters": 1440, "kernel_size": [1, 1], "padding": "same"}}, {"name": "block_16_expand_BN", "inbound_nodes": [[["block_16_expand", 0, 0, {}]]], "class_name": "BatchNormalization", "config": {"beta_regularizer": null, "scale": true, "gamma_constraint": null, "beta_constraint": null, "moving_mean_initializer": {"class_name": "Zeros", "config": {}}, "moving_variance_initializer": {"class_name": "Ones", "config": {}}, "trainable": true, "momentum": 0.999, "beta_initializer": {"class_name": "Zeros", "config": {}}, "center": true, "epsilon": 0.001, "gamma_initializer": {"class_name": "Ones", "config": {}}, "name": "block_16_expand_BN", "gamma_regularizer": null, "axis": -1}}, {"name": "block_16_expand_relu", "inbound_nodes": [[["block_16_expand_BN", 0, 0, {}]]], "class_name": "ReLU", "config": {"max_value": 6.0, "trainable": true, "name": "block_16_expand_relu", "threshold": 0.0, "negative_slope": 0.0}}, {"name": "block_16_depthwise", "inbound_nodes": [[["block_16_expand_relu", 0, 0, {}]]], "class_name": "DepthwiseConv2D", "config": {"activation": "linear", "activity_regularizer": null, "bias_constraint": null, "data_format": "channels_last", "depth_multiplier": 1, "bias_regularizer": null, "bias_initializer": {"class_name": "Zeros", "config": {}}, "depthwise_constraint": null, "trainable": true, "depthwise_regularizer": null, "dilation_rate": [1, 1], "strides": [1, 1], "depthwise_initializer": {"class_name": "VarianceScaling", "config": {"scale": 1.0, "seed": null, "mode": "fan_avg", "distribution": "uniform"}}, "use_bias": false, "name": "block_16_depthwise", "kernel_size": [3, 3], "padding": "same"}}, {"name": "block_16_depthwise_BN", "inbound_nodes": [[["block_16_depthwise", 0, 0, {}]]], "class_name": "BatchNormalization", "config": {"beta_regularizer": null, "scale": true, "gamma_constraint": null, "beta_constraint": null, "moving_mean_initializer": {"class_name": "Zeros", "config": {}}, "moving_variance_initializer": {"class_name": "Ones", "config": {}}, "trainable": true, "momentum": 0.999, "beta_initializer": {"class_name": "Zeros", "config": {}}, "center": true, "epsilon": 0.001, "gamma_initializer": {"class_name": "Ones", "config": {}}, "name": "block_16_depthwise_BN", "gamma_regularizer": null, "axis": -1}}, {"name": "block_16_depthwise_relu", "inbound_nodes": [[["block_16_depthwise_BN", 0, 0, {}]]], "class_name": "ReLU", "config": {"max_value": 6.0, "trainable": true, "name": "block_16_depthwise_relu", "threshold": 0.0, "negative_slope": 0.0}}, {"name": "block_16_project", "inbound_nodes": [[["block_16_depthwise_relu", 0, 0, {}]]], "class_name": "Conv2D", "config": {"activation": "linear", "kernel_regularizer": null, "kernel_initializer": {"class_name": "VarianceScaling", "config": {"scale": 1.0, "seed": null, "mode": "fan_avg", "distribution": "uniform"}}, "bias_constraint": null, "data_format": "channels_last", "name": "block_16_project", "bias_regularizer": null, "bias_initializer": {"class_name": "Zeros", "config": {}}, "strides": [1, 1], "trainable": true, "kernel_constraint": null, "dilation_rate": [1, 1], "activity_regularizer": null, "use_bias": false, "filters": 480, "kernel_size": [1, 1], "padding": "same"}}, {"name": "block_16_project_BN", "inbound_nodes": [[["block_16_project", 0, 0, {}]]], "class_name": "BatchNormalization", "config": {"beta_regularizer": null, "scale": true, "gamma_constraint": null, "beta_constraint": null, "moving_mean_initializer": {"class_name": "Zeros", "config": {}}, "moving_variance_initializer": {"class_name": "Ones", "config": {}}, "trainable": true, "momentum": 0.999, "beta_initializer": {"class_name": "Zeros", "config": {}}, "center": true, "epsilon": 0.001, "gamma_initializer": {"class_name": "Ones", "config": {}}, "name": "block_16_project_BN", "gamma_regularizer": null, "axis": -1}}, {"name": "Conv_1", "inbound_nodes": [[["block_16_project_BN", 0, 0, {}]]], "class_name": "Conv2D", "config": {"activation": "linear", "kernel_regularizer": null, "kernel_initializer": {"class_name": "VarianceScaling", "config": {"scale": 1.0, "seed": null, "mode": "fan_avg", "distribution": "uniform"}}, "bias_constraint": null, "data_format": "channels_last", "name": "Conv_1", "bias_regularizer": null, "bias_initializer": {"class_name": "Zeros", "config": {}}, "strides": [1, 1], "trainable": true, "kernel_constraint": null, "dilation_rate": [1, 1], "activity_regularizer": null, "use_bias": false, "filters": 1920, "kernel_size": [1, 1], "padding": "valid"}}, {"name": "Conv_1_bn", "inbound_nodes": [[["Conv_1", 0, 0, {}]]], "class_name": "BatchNormalization", "config": {"beta_regularizer": null, "scale": true, "gamma_constraint": null, "beta_constraint": null, "moving_mean_initializer": {"class_name": "Zeros", "config": {}}, "moving_variance_initializer": {"class_name": "Ones", "config": {}}, "trainable": true, "momentum": 0.999, "beta_initializer": {"class_name": "Zeros", "config": {}}, "center": true, "epsilon": 0.001, "gamma_initializer": {"class_name": "Ones", "config": {}}, "name": "Conv_1_bn", "gamma_regularizer": null, "axis": -1}}, {"name": "out_relu", "inbound_nodes": [[["Conv_1_bn", 0, 0, {}]]], "class_name": "ReLU", "config": {"max_value": 6.0, "trainable": true, "name": "out_relu", "threshold": 0.0, "negative_slope": 0.0}}, {"name": "flatten_1", "inbound_nodes": [[["out_relu", 0, 0, {}]]], "class_name": "Flatten", "config": {"trainable": true, "name": "flatten_1", "data_format": "channels_last"}}, {"name": "dense_1", "inbound_nodes": [[["flatten_1", 0, 0, {}]]], "class_name": "Dense", "config": {"units": 256, "activation": "relu", "kernel_regularizer": null, "kernel_initializer": {"class_name": "VarianceScaling", "config": {"scale": 1.0, "seed": null, "mode": "fan_avg", "distribution": "uniform"}}, "bias_constraint": null, "bias_regularizer": null, "bias_initializer": {"class_name": "Zeros", "config": {}}, "trainable": true, "use_bias": true, "name": "dense_1", "kernel_constraint": null, "activity_regularizer": null}}, {"name": "dropout_1", "inbound_nodes": [[["dense_1", 0, 0, {}]]], "class_name": "Dropout", "config": {"rate": 0.5, "trainable": true, "name": "dropout_1", "seed": null, "noise_shape": null}}, {"name": "dense_2", "inbound_nodes": [[["dropout_1", 0, 0, {}]]], "class_name": "Dense", "config": {"units": 2, "activation": "softmax", "kernel_regularizer": null, "kernel_initializer": {"class_name": "VarianceScaling", "config": {"scale": 1.0, "seed": null, "mode": "fan_avg", "distribution": "uniform"}}, "bias_constraint": null, "bias_regularizer": null, "bias_initializer": {"class_name": "Zeros", "config": {}}, "trainable": true, "use_bias": true, "name": "dense_2", "kernel_constraint": null, "activity_regularizer": null}}], "name": "model_1", "input_layers": [["input_1", 0, 0]], "output_layers": [["dense_2", 0, 0]]}}}, "weightsManifest": [{"paths": ["group1-shard1of13.bin", "group1-shard2of13.bin", "group1-shard3of13.bin", "group1-shard4of13.bin", "group1-shard5of13.bin", "group1-shard6of13.bin", "group1-shard7of13.bin", "group1-shard8of13.bin", "group1-shard9of13.bin", "group1-shard10of13.bin", "group1-shard11of13.bin", "group1-shard12of13.bin", "group1-shard13of13.bin"], "weights": [{"name": "Conv1/kernel", "shape": [3, 3, 1, 48], "dtype": "float32"}, {"name": "Conv_1/kernel", "shape": [1, 1, 480, 1920], "dtype": "float32"}, {"name": "Conv_1_bn/gamma", "shape": [1920], "dtype": "float32"}, {"name": "Conv_1_bn/beta", "shape": [1920], "dtype": "float32"}, {"name": "Conv_1_bn/moving_mean", "shape": [1920], "dtype": "float32"}, {"name": "Conv_1_bn/moving_variance", "shape": [1920], "dtype": "float32"}, {"name": "block_10_depthwise/depthwise_kernel", "shape": [3, 3, 576, 1], "dtype": "float32"}, {"name": "block_10_depthwise_BN/gamma", "shape": [576], "dtype": "float32"}, {"name": "block_10_depthwise_BN/beta", "shape": [576], "dtype": "float32"}, {"name": "block_10_depthwise_BN/moving_mean", "shape": [576], "dtype": "float32"}, {"name": "block_10_depthwise_BN/moving_variance", "shape": [576], "dtype": "float32"}, {"name": "block_10_expand/kernel", "shape": [1, 1, 96, 576], "dtype": "float32"}, {"name": "block_10_expand_BN/gamma", "shape": [576], "dtype": "float32"}, {"name": "block_10_expand_BN/beta", "shape": [576], "dtype": "float32"}, {"name": "block_10_expand_BN/moving_mean", "shape": [576], "dtype": "float32"}, {"name": "block_10_expand_BN/moving_variance", "shape": [576], "dtype": "float32"}, {"name": "block_10_project/kernel", "shape": [1, 1, 576, 144], "dtype": "float32"}, {"name": "block_10_project_BN/gamma", "shape": [144], "dtype": "float32"}, {"name": "block_10_project_BN/beta", "shape": [144], "dtype": "float32"}, {"name": "block_10_project_BN/moving_mean", "shape": [144], "dtype": "float32"}, {"name": "block_10_project_BN/moving_variance", "shape": [144], "dtype": "float32"}, {"name": "block_11_depthwise/depthwise_kernel", "shape": [3, 3, 864, 1], "dtype": "float32"}, {"name": "block_11_depthwise_BN/gamma", "shape": [864], "dtype": "float32"}, {"name": "block_11_depthwise_BN/beta", "shape": [864], "dtype": "float32"}, {"name": "block_11_depthwise_BN/moving_mean", "shape": [864], "dtype": "float32"}, {"name": "block_11_depthwise_BN/moving_variance", "shape": [864], "dtype": "float32"}, {"name": "block_11_expand/kernel", "shape": [1, 1, 144, 864], "dtype": "float32"}, {"name": "block_11_expand_BN/gamma", "shape": [864], "dtype": "float32"}, {"name": "block_11_expand_BN/beta", "shape": [864], "dtype": "float32"}, {"name": "block_11_expand_BN/moving_mean", "shape": [864], "dtype": "float32"}, {"name": "block_11_expand_BN/moving_variance", "shape": [864], "dtype": "float32"}, {"name": "block_11_project/kernel", "shape": [1, 1, 864, 144], "dtype": "float32"}, {"name": "block_11_project_BN/gamma", "shape": [144], "dtype": "float32"}, {"name": "block_11_project_BN/beta", "shape": [144], "dtype": "float32"}, {"name": "block_11_project_BN/moving_mean", "shape": [144], "dtype": "float32"}, {"name": "block_11_project_BN/moving_variance", "shape": [144], "dtype": "float32"}, {"name": "block_12_depthwise/depthwise_kernel", "shape": [3, 3, 864, 1], "dtype": "float32"}, {"name": "block_12_depthwise_BN/gamma", "shape": [864], "dtype": "float32"}, {"name": "block_12_depthwise_BN/beta", "shape": [864], "dtype": "float32"}, {"name": "block_12_depthwise_BN/moving_mean", "shape": [864], "dtype": "float32"}, {"name": "block_12_depthwise_BN/moving_variance", "shape": [864], "dtype": "float32"}, {"name": "block_12_expand/kernel", "shape": [1, 1, 144, 864], "dtype": "float32"}, {"name": "block_12_expand_BN/gamma", "shape": [864], "dtype": "float32"}, {"name": "block_12_expand_BN/beta", "shape": [864], "dtype": "float32"}, {"name": "block_12_expand_BN/moving_mean", "shape": [864], "dtype": "float32"}, {"name": "block_12_expand_BN/moving_variance", "shape": [864], "dtype": "float32"}, {"name": "block_12_project/kernel", "shape": [1, 1, 864, 144], "dtype": "float32"}, {"name": "block_12_project_BN/gamma", "shape": [144], "dtype": "float32"}, {"name": "block_12_project_BN/beta", "shape": [144], "dtype": "float32"}, {"name": "block_12_project_BN/moving_mean", "shape": [144], "dtype": "float32"}, {"name": "block_12_project_BN/moving_variance", "shape": [144], "dtype": "float32"}, {"name": "block_13_depthwise/depthwise_kernel", "shape": [3, 3, 864, 1], "dtype": "float32"}, {"name": "block_13_depthwise_BN/gamma", "shape": [864], "dtype": "float32"}, {"name": "block_13_depthwise_BN/beta", "shape": [864], "dtype": "float32"}, {"name": "block_13_depthwise_BN/moving_mean", "shape": [864], "dtype": "float32"}, {"name": "block_13_depthwise_BN/moving_variance", "shape": [864], "dtype": "float32"}, {"name": "block_13_expand/kernel", "shape": [1, 1, 144, 864], "dtype": "float32"}, {"name": "block_13_expand_BN/gamma", "shape": [864], "dtype": "float32"}, {"name": "block_13_expand_BN/beta", "shape": [864], "dtype": "float32"}, {"name": "block_13_expand_BN/moving_mean", "shape": [864], "dtype": "float32"}, {"name": "block_13_expand_BN/moving_variance", "shape": [864], "dtype": "float32"}, {"name": "block_13_project/kernel", "shape": [1, 1, 864, 240], "dtype": "float32"}, {"name": "block_13_project_BN/gamma", "shape": [240], "dtype": "float32"}, {"name": "block_13_project_BN/beta", "shape": [240], "dtype": "float32"}, {"name": "block_13_project_BN/moving_mean", "shape": [240], "dtype": "float32"}, {"name": "block_13_project_BN/moving_variance", "shape": [240], "dtype": "float32"}, {"name": "block_14_depthwise/depthwise_kernel", "shape": [3, 3, 1440, 1], "dtype": "float32"}, {"name": "block_14_depthwise_BN/gamma", "shape": [1440], "dtype": "float32"}, {"name": "block_14_depthwise_BN/beta", "shape": [1440], "dtype": "float32"}, {"name": "block_14_depthwise_BN/moving_mean", "shape": [1440], "dtype": "float32"}, {"name": "block_14_depthwise_BN/moving_variance", "shape": [1440], "dtype": "float32"}, {"name": "block_14_expand/kernel", "shape": [1, 1, 240, 1440], "dtype": "float32"}, {"name": "block_14_expand_BN/gamma", "shape": [1440], "dtype": "float32"}, {"name": "block_14_expand_BN/beta", "shape": [1440], "dtype": "float32"}, {"name": "block_14_expand_BN/moving_mean", "shape": [1440], "dtype": "float32"}, {"name": "block_14_expand_BN/moving_variance", "shape": [1440], "dtype": "float32"}, {"name": "block_14_project/kernel", "shape": [1, 1, 1440, 240], "dtype": "float32"}, {"name": "block_14_project_BN/gamma", "shape": [240], "dtype": "float32"}, {"name": "block_14_project_BN/beta", "shape": [240], "dtype": "float32"}, {"name": "block_14_project_BN/moving_mean", "shape": [240], "dtype": "float32"}, {"name": "block_14_project_BN/moving_variance", "shape": [240], "dtype": "float32"}, {"name": "block_15_depthwise/depthwise_kernel", "shape": [3, 3, 1440, 1], "dtype": "float32"}, {"name": "block_15_depthwise_BN/gamma", "shape": [1440], "dtype": "float32"}, {"name": "block_15_depthwise_BN/beta", "shape": [1440], "dtype": "float32"}, {"name": "block_15_depthwise_BN/moving_mean", "shape": [1440], "dtype": "float32"}, {"name": "block_15_depthwise_BN/moving_variance", "shape": [1440], "dtype": "float32"}, {"name": "block_15_expand/kernel", "shape": [1, 1, 240, 1440], "dtype": "float32"}, {"name": "block_15_expand_BN/gamma", "shape": [1440], "dtype": "float32"}, {"name": "block_15_expand_BN/beta", "shape": [1440], "dtype": "float32"}, {"name": "block_15_expand_BN/moving_mean", "shape": [1440], "dtype": "float32"}, {"name": "block_15_expand_BN/moving_variance", "shape": [1440], "dtype": "float32"}, {"name": "block_15_project/kernel", "shape": [1, 1, 1440, 240], "dtype": "float32"}, {"name": "block_15_project_BN/gamma", "shape": [240], "dtype": "float32"}, {"name": "block_15_project_BN/beta", "shape": [240], "dtype": "float32"}, {"name": "block_15_project_BN/moving_mean", "shape": [240], "dtype": "float32"}, {"name": "block_15_project_BN/moving_variance", "shape": [240], "dtype": "float32"}, {"name": "block_16_depthwise/depthwise_kernel", "shape": [3, 3, 1440, 1], "dtype": "float32"}, {"name": "block_16_depthwise_BN/gamma", "shape": [1440], "dtype": "float32"}, {"name": "block_16_depthwise_BN/beta", "shape": [1440], "dtype": "float32"}, {"name": "block_16_depthwise_BN/moving_mean", "shape": [1440], "dtype": "float32"}, {"name": "block_16_depthwise_BN/moving_variance", "shape": [1440], "dtype": "float32"}, {"name": "block_16_expand/kernel", "shape": [1, 1, 240, 1440], "dtype": "float32"}, {"name": "block_16_expand_BN/gamma", "shape": [1440], "dtype": "float32"}, {"name": "block_16_expand_BN/beta", "shape": [1440], "dtype": "float32"}, {"name": "block_16_expand_BN/moving_mean", "shape": [1440], "dtype": "float32"}, {"name": "block_16_expand_BN/moving_variance", "shape": [1440], "dtype": "float32"}, {"name": "block_16_project/kernel", "shape": [1, 1, 1440, 480], "dtype": "float32"}, {"name": "block_16_project_BN/gamma", "shape": [480], "dtype": "float32"}, {"name": "block_16_project_BN/beta", "shape": [480], "dtype": "float32"}, {"name": "block_16_project_BN/moving_mean", "shape": [480], "dtype": "float32"}, {"name": "block_16_project_BN/moving_variance", "shape": [480], "dtype": "float32"}, {"name": "block_1_depthwise/depthwise_kernel", "shape": [3, 3, 144, 1], "dtype": "float32"}, {"name": "block_1_depthwise_BN/gamma", "shape": [144], "dtype": "float32"}, {"name": "block_1_depthwise_BN/beta", "shape": [144], "dtype": "float32"}, {"name": "block_1_depthwise_BN/moving_mean", "shape": [144], "dtype": "float32"}, {"name": "block_1_depthwise_BN/moving_variance", "shape": [144], "dtype": "float32"}, {"name": "block_1_expand/kernel", "shape": [1, 1, 24, 144], "dtype": "float32"}, {"name": "block_1_expand_BN/gamma", "shape": [144], "dtype": "float32"}, {"name": "block_1_expand_BN/beta", "shape": [144], "dtype": "float32"}, {"name": "block_1_expand_BN/moving_mean", "shape": [144], "dtype": "float32"}, {"name": "block_1_expand_BN/moving_variance", "shape": [144], "dtype": "float32"}, {"name": "block_1_project/kernel", "shape": [1, 1, 144, 40], "dtype": "float32"}, {"name": "block_1_project_BN/gamma", "shape": [40], "dtype": "float32"}, {"name": "block_1_project_BN/beta", "shape": [40], "dtype": "float32"}, {"name": "block_1_project_BN/moving_mean", "shape": [40], "dtype": "float32"}, {"name": "block_1_project_BN/moving_variance", "shape": [40], "dtype": "float32"}, {"name": "block_2_depthwise/depthwise_kernel", "shape": [3, 3, 240, 1], "dtype": "float32"}, {"name": "block_2_depthwise_BN/gamma", "shape": [240], "dtype": "float32"}, {"name": "block_2_depthwise_BN/beta", "shape": [240], "dtype": "float32"}, {"name": "block_2_depthwise_BN/moving_mean", "shape": [240], "dtype": "float32"}, {"name": "block_2_depthwise_BN/moving_variance", "shape": [240], "dtype": "float32"}, {"name": "block_2_expand/kernel", "shape": [1, 1, 40, 240], "dtype": "float32"}, {"name": "block_2_expand_BN/gamma", "shape": [240], "dtype": "float32"}, {"name": "block_2_expand_BN/beta", "shape": [240], "dtype": "float32"}, {"name": "block_2_expand_BN/moving_mean", "shape": [240], "dtype": "float32"}, {"name": "block_2_expand_BN/moving_variance", "shape": [240], "dtype": "float32"}, {"name": "block_2_project/kernel", "shape": [1, 1, 240, 40], "dtype": "float32"}, {"name": "block_2_project_BN/gamma", "shape": [40], "dtype": "float32"}, {"name": "block_2_project_BN/beta", "shape": [40], "dtype": "float32"}, {"name": "block_2_project_BN/moving_mean", "shape": [40], "dtype": "float32"}, {"name": "block_2_project_BN/moving_variance", "shape": [40], "dtype": "float32"}, {"name": "block_3_depthwise/depthwise_kernel", "shape": [3, 3, 240, 1], "dtype": "float32"}, {"name": "block_3_depthwise_BN/gamma", "shape": [240], "dtype": "float32"}, {"name": "block_3_depthwise_BN/beta", "shape": [240], "dtype": "float32"}, {"name": "block_3_depthwise_BN/moving_mean", "shape": [240], "dtype": "float32"}, {"name": "block_3_depthwise_BN/moving_variance", "shape": [240], "dtype": "float32"}, {"name": "block_3_expand/kernel", "shape": [1, 1, 40, 240], "dtype": "float32"}, {"name": "block_3_expand_BN/gamma", "shape": [240], "dtype": "float32"}, {"name": "block_3_expand_BN/beta", "shape": [240], "dtype": "float32"}, {"name": "block_3_expand_BN/moving_mean", "shape": [240], "dtype": "float32"}, {"name": "block_3_expand_BN/moving_variance", "shape": [240], "dtype": "float32"}, {"name": "block_3_project/kernel", "shape": [1, 1, 240, 48], "dtype": "float32"}, {"name": "block_3_project_BN/gamma", "shape": [48], "dtype": "float32"}, {"name": "block_3_project_BN/beta", "shape": [48], "dtype": "float32"}, {"name": "block_3_project_BN/moving_mean", "shape": [48], "dtype": "float32"}, {"name": "block_3_project_BN/moving_variance", "shape": [48], "dtype": "float32"}, {"name": "block_4_depthwise/depthwise_kernel", "shape": [3, 3, 288, 1], "dtype": "float32"}, {"name": "block_4_depthwise_BN/gamma", "shape": [288], "dtype": "float32"}, {"name": "block_4_depthwise_BN/beta", "shape": [288], "dtype": "float32"}, {"name": "block_4_depthwise_BN/moving_mean", "shape": [288], "dtype": "float32"}, {"name": "block_4_depthwise_BN/moving_variance", "shape": [288], "dtype": "float32"}, {"name": "block_4_expand/kernel", "shape": [1, 1, 48, 288], "dtype": "float32"}, {"name": "block_4_expand_BN/gamma", "shape": [288], "dtype": "float32"}, {"name": "block_4_expand_BN/beta", "shape": [288], "dtype": "float32"}, {"name": "block_4_expand_BN/moving_mean", "shape": [288], "dtype": "float32"}, {"name": "block_4_expand_BN/moving_variance", "shape": [288], "dtype": "float32"}, {"name": "block_4_project/kernel", "shape": [1, 1, 288, 48], "dtype": "float32"}, {"name": "block_4_project_BN/gamma", "shape": [48], "dtype": "float32"}, {"name": "block_4_project_BN/beta", "shape": [48], "dtype": "float32"}, {"name": "block_4_project_BN/moving_mean", "shape": [48], "dtype": "float32"}, {"name": "block_4_project_BN/moving_variance", "shape": [48], "dtype": "float32"}, {"name": "block_5_depthwise/depthwise_kernel", "shape": [3, 3, 288, 1], "dtype": "float32"}, {"name": "block_5_depthwise_BN/gamma", "shape": [288], "dtype": "float32"}, {"name": "block_5_depthwise_BN/beta", "shape": [288], "dtype": "float32"}, {"name": "block_5_depthwise_BN/moving_mean", "shape": [288], "dtype": "float32"}, {"name": "block_5_depthwise_BN/moving_variance", "shape": [288], "dtype": "float32"}, {"name": "block_5_expand/kernel", "shape": [1, 1, 48, 288], "dtype": "float32"}, {"name": "block_5_expand_BN/gamma", "shape": [288], "dtype": "float32"}, {"name": "block_5_expand_BN/beta", "shape": [288], "dtype": "float32"}, {"name": "block_5_expand_BN/moving_mean", "shape": [288], "dtype": "float32"}, {"name": "block_5_expand_BN/moving_variance", "shape": [288], "dtype": "float32"}, {"name": "block_5_project/kernel", "shape": [1, 1, 288, 48], "dtype": "float32"}, {"name": "block_5_project_BN/gamma", "shape": [48], "dtype": "float32"}, {"name": "block_5_project_BN/beta", "shape": [48], "dtype": "float32"}, {"name": "block_5_project_BN/moving_mean", "shape": [48], "dtype": "float32"}, {"name": "block_5_project_BN/moving_variance", "shape": [48], "dtype": "float32"}, {"name": "block_6_depthwise/depthwise_kernel", "shape": [3, 3, 288, 1], "dtype": "float32"}, {"name": "block_6_depthwise_BN/gamma", "shape": [288], "dtype": "float32"}, {"name": "block_6_depthwise_BN/beta", "shape": [288], "dtype": "float32"}, {"name": "block_6_depthwise_BN/moving_mean", "shape": [288], "dtype": "float32"}, {"name": "block_6_depthwise_BN/moving_variance", "shape": [288], "dtype": "float32"}, {"name": "block_6_expand/kernel", "shape": [1, 1, 48, 288], "dtype": "float32"}, {"name": "block_6_expand_BN/gamma", "shape": [288], "dtype": "float32"}, {"name": "block_6_expand_BN/beta", "shape": [288], "dtype": "float32"}, {"name": "block_6_expand_BN/moving_mean", "shape": [288], "dtype": "float32"}, {"name": "block_6_expand_BN/moving_variance", "shape": [288], "dtype": "float32"}, {"name": "block_6_project/kernel", "shape": [1, 1, 288, 96], "dtype": "float32"}, {"name": "block_6_project_BN/gamma", "shape": [96], "dtype": "float32"}, {"name": "block_6_project_BN/beta", "shape": [96], "dtype": "float32"}, {"name": "block_6_project_BN/moving_mean", "shape": [96], "dtype": "float32"}, {"name": "block_6_project_BN/moving_variance", "shape": [96], "dtype": "float32"}, {"name": "block_7_depthwise/depthwise_kernel", "shape": [3, 3, 576, 1], "dtype": "float32"}, {"name": "block_7_depthwise_BN/gamma", "shape": [576], "dtype": "float32"}, {"name": "block_7_depthwise_BN/beta", "shape": [576], "dtype": "float32"}, {"name": "block_7_depthwise_BN/moving_mean", "shape": [576], "dtype": "float32"}, {"name": "block_7_depthwise_BN/moving_variance", "shape": [576], "dtype": "float32"}, {"name": "block_7_expand/kernel", "shape": [1, 1, 96, 576], "dtype": "float32"}, {"name": "block_7_expand_BN/gamma", "shape": [576], "dtype": "float32"}, {"name": "block_7_expand_BN/beta", "shape": [576], "dtype": "float32"}, {"name": "block_7_expand_BN/moving_mean", "shape": [576], "dtype": "float32"}, {"name": "block_7_expand_BN/moving_variance", "shape": [576], "dtype": "float32"}, {"name": "block_7_project/kernel", "shape": [1, 1, 576, 96], "dtype": "float32"}, {"name": "block_7_project_BN/gamma", "shape": [96], "dtype": "float32"}, {"name": "block_7_project_BN/beta", "shape": [96], "dtype": "float32"}, {"name": "block_7_project_BN/moving_mean", "shape": [96], "dtype": "float32"}, {"name": "block_7_project_BN/moving_variance", "shape": [96], "dtype": "float32"}, {"name": "block_8_depthwise/depthwise_kernel", "shape": [3, 3, 576, 1], "dtype": "float32"}, {"name": "block_8_depthwise_BN/gamma", "shape": [576], "dtype": "float32"}, {"name": "block_8_depthwise_BN/beta", "shape": [576], "dtype": "float32"}, {"name": "block_8_depthwise_BN/moving_mean", "shape": [576], "dtype": "float32"}, {"name": "block_8_depthwise_BN/moving_variance", "shape": [576], "dtype": "float32"}, {"name": "block_8_expand/kernel", "shape": [1, 1, 96, 576], "dtype": "float32"}, {"name": "block_8_expand_BN/gamma", "shape": [576], "dtype": "float32"}, {"name": "block_8_expand_BN/beta", "shape": [576], "dtype": "float32"}, {"name": "block_8_expand_BN/moving_mean", "shape": [576], "dtype": "float32"}, {"name": "block_8_expand_BN/moving_variance", "shape": [576], "dtype": "float32"}, {"name": "block_8_project/kernel", "shape": [1, 1, 576, 96], "dtype": "float32"}, {"name": "block_8_project_BN/gamma", "shape": [96], "dtype": "float32"}, {"name": "block_8_project_BN/beta", "shape": [96], "dtype": "float32"}, {"name": "block_8_project_BN/moving_mean", "shape": [96], "dtype": "float32"}, {"name": "block_8_project_BN/moving_variance", "shape": [96], "dtype": "float32"}, {"name": "block_9_depthwise/depthwise_kernel", "shape": [3, 3, 576, 1], "dtype": "float32"}, {"name": "block_9_depthwise_BN/gamma", "shape": [576], "dtype": "float32"}, {"name": "block_9_depthwise_BN/beta", "shape": [576], "dtype": "float32"}, {"name": "block_9_depthwise_BN/moving_mean", "shape": [576], "dtype": "float32"}, {"name": "block_9_depthwise_BN/moving_variance", "shape": [576], "dtype": "float32"}, {"name": "block_9_expand/kernel", "shape": [1, 1, 96, 576], "dtype": "float32"}, {"name": "block_9_expand_BN/gamma", "shape": [576], "dtype": "float32"}, {"name": "block_9_expand_BN/beta", "shape": [576], "dtype": "float32"}, {"name": "block_9_expand_BN/moving_mean", "shape": [576], "dtype": "float32"}, {"name": "block_9_expand_BN/moving_variance", "shape": [576], "dtype": "float32"}, {"name": "block_9_project/kernel", "shape": [1, 1, 576, 96], "dtype": "float32"}, {"name": "block_9_project_BN/gamma", "shape": [96], "dtype": "float32"}, {"name": "block_9_project_BN/beta", "shape": [96], "dtype": "float32"}, {"name": "block_9_project_BN/moving_mean", "shape": [96], "dtype": "float32"}, {"name": "block_9_project_BN/moving_variance", "shape": [96], "dtype": "float32"}, {"name": "bn_Conv1/gamma", "shape": [48], "dtype": "float32"}, {"name": "bn_Conv1/beta", "shape": [48], "dtype": "float32"}, {"name": "bn_Conv1/moving_mean", "shape": [48], "dtype": "float32"}, {"name": "bn_Conv1/moving_variance", "shape": [48], "dtype": "float32"}, {"name": "dense_1/kernel", "shape": [30720, 256], "dtype": "float32"}, {"name": "dense_1/bias", "shape": [256], "dtype": "float32"}, {"name": "dense_2/kernel", "shape": [256, 2], "dtype": "float32"}, {"name": "dense_2/bias", "shape": [2], "dtype": "float32"}, {"name": "expanded_conv_depthwise/depthwise_kernel", "shape": [3, 3, 48, 1], "dtype": "float32"}, {"name": "expanded_conv_depthwise_BN/gamma", "shape": [48], "dtype": "float32"}, {"name": "expanded_conv_depthwise_BN/beta", "shape": [48], "dtype": "float32"}, {"name": "expanded_conv_depthwise_BN/moving_mean", "shape": [48], "dtype": "float32"}, {"name": "expanded_conv_depthwise_BN/moving_variance", "shape": [48], "dtype": "float32"}, {"name": "expanded_conv_project/kernel", "shape": [1, 1, 48, 24], "dtype": "float32"}, {"name": "expanded_conv_project_BN/gamma", "shape": [24], "dtype": "float32"}, {"name": "expanded_conv_project_BN/beta", "shape": [24], "dtype": "float32"}, {"name": "expanded_conv_project_BN/moving_mean", "shape": [24], "dtype": "float32"}, {"name": "expanded_conv_project_BN/moving_variance", "shape": [24], "dtype": "float32"}]}]}