{"format": "layers-model", "generatedBy": "keras v2.2.4-tf", "convertedBy": "TensorFlow.js Converter v1.2.2.1", "modelTopology": {"keras_version": "2.2.4-tf", "backend": "tensorflow", "model_config": {"class_name": "Model", "config": {"name": "model", "layers": [{"name": "input_1", "class_name": "InputLayer", "config": {"batch_input_shape": [null, 128, 128, 1], "dtype": "float32", "sparse": false, "name": "input_1"}, "inbound_nodes": []}, {"name": "Conv1_pad", "class_name": "ZeroPadding2D", "config": {"name": "Conv1_pad", "trainable": true, "dtype": "float32", "padding": [[0, 1], [0, 1]], "data_format": "channels_last"}, "inbound_nodes": [[["input_1", 0, 0, {}]]]}, {"name": "Conv1", "class_name": "Conv2D", "config": {"name": "Conv1", "trainable": true, "dtype": "float32", "filters": 48, "kernel_size": [3, 3], "strides": [2, 2], "padding": "valid", "data_format": "channels_last", "dilation_rate": [1, 1], "activation": "linear", "use_bias": false, "kernel_initializer": {"class_name": "GlorotUniform", "config": {"seed": null}}, "bias_initializer": {"class_name": "Zeros", "config": {}}, "kernel_regularizer": null, "bias_regularizer": null, "activity_regularizer": null, "kernel_constraint": null, "bias_constraint": null}, "inbound_nodes": [[["Conv1_pad", 0, 0, {}]]]}, {"name": "bn_Conv1", "class_name": "BatchNormalization", "config": {"name": "bn_Conv1", "trainable": true, "dtype": "float32", "axis": [3], "momentum": 0.999, "epsilon": 0.001, "center": true, "scale": true, "beta_initializer": {"class_name": "Zeros", "config": {}}, "gamma_initializer": {"class_name": "Ones", "config": {}}, "moving_mean_initializer": {"class_name": "Zeros", "config": {}}, "moving_variance_initializer": {"class_name": "Ones", "config": {}}, "beta_regularizer": null, "gamma_regularizer": null, "beta_constraint": null, "gamma_constraint": null}, "inbound_nodes": [[["Conv1", 0, 0, {}]]]}, {"name": "Conv1_relu", "class_name": "ReLU", "config": {"name": "Conv1_relu", "trainable": true, "dtype": "float32", "max_value": 6.0, "negative_slope": 0.0, "threshold": 0.0}, "inbound_nodes": [[["bn_Conv1", 0, 0, {}]]]}, {"name": "expanded_conv_depthwise", "class_name": "DepthwiseConv2D", "config": {"name": "expanded_conv_depthwise", "trainable": true, "dtype": "float32", "kernel_size": [3, 3], "strides": [1, 1], "padding": "same", "data_format": "channels_last", "dilation_rate": [1, 1], "activation": "linear", "use_bias": false, "bias_initializer": {"class_name": "Zeros", "config": {}}, "bias_regularizer": null, "activity_regularizer": null, "bias_constraint": null, "depth_multiplier": 1, "depthwise_initializer": {"class_name": "GlorotUniform", "config": {"seed": null}}, "depthwise_regularizer": null, "depthwise_constraint": null}, "inbound_nodes": [[["Conv1_relu", 0, 0, {}]]]}, {"name": "expanded_conv_depthwise_BN", "class_name": "BatchNormalization", "config": {"name": "expanded_conv_depthwise_BN", "trainable": true, "dtype": "float32", "axis": [3], "momentum": 0.999, "epsilon": 0.001, "center": true, "scale": true, "beta_initializer": {"class_name": "Zeros", "config": {}}, "gamma_initializer": {"class_name": "Ones", "config": {}}, "moving_mean_initializer": {"class_name": "Zeros", "config": {}}, "moving_variance_initializer": {"class_name": "Ones", "config": {}}, "beta_regularizer": null, "gamma_regularizer": null, "beta_constraint": null, "gamma_constraint": null}, "inbound_nodes": [[["expanded_conv_depthwise", 0, 0, {}]]]}, {"name": "expanded_conv_depthwise_relu", "class_name": "ReLU", "config": {"name": "expanded_conv_depthwise_relu", "trainable": true, "dtype": "float32", "max_value": 6.0, "negative_slope": 0.0, "threshold": 0.0}, "inbound_nodes": [[["expanded_conv_depthwise_BN", 0, 0, {}]]]}, {"name": "expanded_conv_project", "class_name": "Conv2D", "config": {"name": "expanded_conv_project", "trainable": true, "dtype": "float32", "filters": 24, "kernel_size": [1, 1], "strides": [1, 1], "padding": "same", "data_format": "channels_last", "dilation_rate": [1, 1], "activation": "linear", "use_bias": false, "kernel_initializer": {"class_name": "GlorotUniform", "config": {"seed": null}}, "bias_initializer": {"class_name": "Zeros", "config": {}}, "kernel_regularizer": null, "bias_regularizer": null, "activity_regularizer": null, "kernel_constraint": null, "bias_constraint": null}, "inbound_nodes": [[["expanded_conv_depthwise_relu", 0, 0, {}]]]}, {"name": "expanded_conv_project_BN", "class_name": "BatchNormalization", "config": {"name": "expanded_conv_project_BN", "trainable": true, "dtype": "float32", "axis": [3], "momentum": 0.999, "epsilon": 0.001, "center": true, "scale": true, "beta_initializer": {"class_name": "Zeros", "config": {}}, "gamma_initializer": {"class_name": "Ones", "config": {}}, "moving_mean_initializer": {"class_name": "Zeros", "config": {}}, "moving_variance_initializer": {"class_name": "Ones", "config": {}}, "beta_regularizer": null, "gamma_regularizer": null, "beta_constraint": null, "gamma_constraint": null}, "inbound_nodes": [[["expanded_conv_project", 0, 0, {}]]]}, {"name": "block_1_expand", "class_name": "Conv2D", "config": {"name": "block_1_expand", "trainable": true, "dtype": "float32", "filters": 144, "kernel_size": [1, 1], "strides": [1, 1], "padding": "same", "data_format": "channels_last", "dilation_rate": [1, 1], "activation": "linear", "use_bias": false, "kernel_initializer": {"class_name": "GlorotUniform", "config": {"seed": null}}, "bias_initializer": {"class_name": "Zeros", "config": {}}, "kernel_regularizer": null, "bias_regularizer": null, "activity_regularizer": null, "kernel_constraint": null, "bias_constraint": null}, "inbound_nodes": [[["expanded_conv_project_BN", 0, 0, {}]]]}, {"name": "block_1_expand_BN", "class_name": "BatchNormalization", "config": {"name": "block_1_expand_BN", "trainable": true, "dtype": "float32", "axis": [3], "momentum": 0.999, "epsilon": 0.001, "center": true, "scale": true, "beta_initializer": {"class_name": "Zeros", "config": {}}, "gamma_initializer": {"class_name": "Ones", "config": {}}, "moving_mean_initializer": {"class_name": "Zeros", "config": {}}, "moving_variance_initializer": {"class_name": "Ones", "config": {}}, "beta_regularizer": null, "gamma_regularizer": null, "beta_constraint": null, "gamma_constraint": null}, "inbound_nodes": [[["block_1_expand", 0, 0, {}]]]}, {"name": "block_1_expand_relu", "class_name": "ReLU", "config": {"name": "block_1_expand_relu", "trainable": true, "dtype": "float32", "max_value": 6.0, "negative_slope": 0.0, "threshold": 0.0}, "inbound_nodes": [[["block_1_expand_BN", 0, 0, {}]]]}, {"name": "block_1_pad", "class_name": "ZeroPadding2D", "config": {"name": "block_1_pad", "trainable": true, "dtype": "float32", "padding": [[0, 1], [0, 1]], "data_format": "channels_last"}, "inbound_nodes": [[["block_1_expand_relu", 0, 0, {}]]]}, {"name": "block_1_depthwise", "class_name": "DepthwiseConv2D", "config": {"name": "block_1_depthwise", "trainable": true, "dtype": "float32", "kernel_size": [3, 3], "strides": [2, 2], "padding": "valid", "data_format": "channels_last", "dilation_rate": [1, 1], "activation": "linear", "use_bias": false, "bias_initializer": {"class_name": "Zeros", "config": {}}, "bias_regularizer": null, "activity_regularizer": null, "bias_constraint": null, "depth_multiplier": 1, "depthwise_initializer": {"class_name": "GlorotUniform", "config": {"seed": null}}, "depthwise_regularizer": null, "depthwise_constraint": null}, "inbound_nodes": [[["block_1_pad", 0, 0, {}]]]}, {"name": "block_1_depthwise_BN", "class_name": "BatchNormalization", "config": {"name": "block_1_depthwise_BN", "trainable": true, "dtype": "float32", "axis": [3], "momentum": 0.999, "epsilon": 0.001, "center": true, "scale": true, "beta_initializer": {"class_name": "Zeros", "config": {}}, "gamma_initializer": {"class_name": "Ones", "config": {}}, "moving_mean_initializer": {"class_name": "Zeros", "config": {}}, "moving_variance_initializer": {"class_name": "Ones", "config": {}}, "beta_regularizer": null, "gamma_regularizer": null, "beta_constraint": null, "gamma_constraint": null}, "inbound_nodes": [[["block_1_depthwise", 0, 0, {}]]]}, {"name": "block_1_depthwise_relu", "class_name": "ReLU", "config": {"name": "block_1_depthwise_relu", "trainable": true, "dtype": "float32", "max_value": 6.0, "negative_slope": 0.0, "threshold": 0.0}, "inbound_nodes": [[["block_1_depthwise_BN", 0, 0, {}]]]}, {"name": "block_1_project", "class_name": "Conv2D", "config": {"name": "block_1_project", "trainable": true, "dtype": "float32", "filters": 40, "kernel_size": [1, 1], "strides": [1, 1], "padding": "same", "data_format": "channels_last", "dilation_rate": [1, 1], "activation": "linear", "use_bias": false, "kernel_initializer": {"class_name": "GlorotUniform", "config": {"seed": null}}, "bias_initializer": {"class_name": "Zeros", "config": {}}, "kernel_regularizer": null, "bias_regularizer": null, "activity_regularizer": null, "kernel_constraint": null, "bias_constraint": null}, "inbound_nodes": [[["block_1_depthwise_relu", 0, 0, {}]]]}, {"name": "block_1_project_BN", "class_name": "BatchNormalization", "config": {"name": "block_1_project_BN", "trainable": true, "dtype": "float32", "axis": [3], "momentum": 0.999, "epsilon": 0.001, "center": true, "scale": true, "beta_initializer": {"class_name": "Zeros", "config": {}}, "gamma_initializer": {"class_name": "Ones", "config": {}}, "moving_mean_initializer": {"class_name": "Zeros", "config": {}}, "moving_variance_initializer": {"class_name": "Ones", "config": {}}, "beta_regularizer": null, "gamma_regularizer": null, "beta_constraint": null, "gamma_constraint": null}, "inbound_nodes": [[["block_1_project", 0, 0, {}]]]}, {"name": "block_2_expand", "class_name": "Conv2D", "config": {"name": "block_2_expand", "trainable": true, "dtype": "float32", "filters": 240, "kernel_size": [1, 1], "strides": [1, 1], "padding": "same", "data_format": "channels_last", "dilation_rate": [1, 1], "activation": "linear", "use_bias": false, "kernel_initializer": {"class_name": "GlorotUniform", "config": {"seed": null}}, "bias_initializer": {"class_name": "Zeros", "config": {}}, "kernel_regularizer": null, "bias_regularizer": null, "activity_regularizer": null, "kernel_constraint": null, "bias_constraint": null}, "inbound_nodes": [[["block_1_project_BN", 0, 0, {}]]]}, {"name": "block_2_expand_BN", "class_name": "BatchNormalization", "config": {"name": "block_2_expand_BN", "trainable": true, "dtype": "float32", "axis": [3], "momentum": 0.999, "epsilon": 0.001, "center": true, "scale": true, "beta_initializer": {"class_name": "Zeros", "config": {}}, "gamma_initializer": {"class_name": "Ones", "config": {}}, "moving_mean_initializer": {"class_name": "Zeros", "config": {}}, "moving_variance_initializer": {"class_name": "Ones", "config": {}}, "beta_regularizer": null, "gamma_regularizer": null, "beta_constraint": null, "gamma_constraint": null}, "inbound_nodes": [[["block_2_expand", 0, 0, {}]]]}, {"name": "block_2_expand_relu", "class_name": "ReLU", "config": {"name": "block_2_expand_relu", "trainable": true, "dtype": "float32", "max_value": 6.0, "negative_slope": 0.0, "threshold": 0.0}, "inbound_nodes": [[["block_2_expand_BN", 0, 0, {}]]]}, {"name": "block_2_depthwise", "class_name": "DepthwiseConv2D", "config": {"name": "block_2_depthwise", "trainable": true, "dtype": "float32", "kernel_size": [3, 3], "strides": [1, 1], "padding": "same", "data_format": "channels_last", "dilation_rate": [1, 1], "activation": "linear", "use_bias": false, "bias_initializer": {"class_name": "Zeros", "config": {}}, "bias_regularizer": null, "activity_regularizer": null, "bias_constraint": null, "depth_multiplier": 1, "depthwise_initializer": {"class_name": "GlorotUniform", "config": {"seed": null}}, "depthwise_regularizer": null, "depthwise_constraint": null}, "inbound_nodes": [[["block_2_expand_relu", 0, 0, {}]]]}, {"name": "block_2_depthwise_BN", "class_name": "BatchNormalization", "config": {"name": "block_2_depthwise_BN", "trainable": true, "dtype": "float32", "axis": [3], "momentum": 0.999, "epsilon": 0.001, "center": true, "scale": true, "beta_initializer": {"class_name": "Zeros", "config": {}}, "gamma_initializer": {"class_name": "Ones", "config": {}}, "moving_mean_initializer": {"class_name": "Zeros", "config": {}}, "moving_variance_initializer": {"class_name": "Ones", "config": {}}, "beta_regularizer": null, "gamma_regularizer": null, "beta_constraint": null, "gamma_constraint": null}, "inbound_nodes": [[["block_2_depthwise", 0, 0, {}]]]}, {"name": "block_2_depthwise_relu", "class_name": "ReLU", "config": {"name": "block_2_depthwise_relu", "trainable": true, "dtype": "float32", "max_value": 6.0, "negative_slope": 0.0, "threshold": 0.0}, "inbound_nodes": [[["block_2_depthwise_BN", 0, 0, {}]]]}, {"name": "block_2_project", "class_name": "Conv2D", "config": {"name": "block_2_project", "trainable": true, "dtype": "float32", "filters": 40, "kernel_size": [1, 1], "strides": [1, 1], "padding": "same", "data_format": "channels_last", "dilation_rate": [1, 1], "activation": "linear", "use_bias": false, "kernel_initializer": {"class_name": "GlorotUniform", "config": {"seed": null}}, "bias_initializer": {"class_name": "Zeros", "config": {}}, "kernel_regularizer": null, "bias_regularizer": null, "activity_regularizer": null, "kernel_constraint": null, "bias_constraint": null}, "inbound_nodes": [[["block_2_depthwise_relu", 0, 0, {}]]]}, {"name": "block_2_project_BN", "class_name": "BatchNormalization", "config": {"name": "block_2_project_BN", "trainable": true, "dtype": "float32", "axis": [3], "momentum": 0.999, "epsilon": 0.001, "center": true, "scale": true, "beta_initializer": {"class_name": "Zeros", "config": {}}, "gamma_initializer": {"class_name": "Ones", "config": {}}, "moving_mean_initializer": {"class_name": "Zeros", "config": {}}, "moving_variance_initializer": {"class_name": "Ones", "config": {}}, "beta_regularizer": null, "gamma_regularizer": null, "beta_constraint": null, "gamma_constraint": null}, "inbound_nodes": [[["block_2_project", 0, 0, {}]]]}, {"name": "block_2_add", "class_name": "Add", "config": {"name": "block_2_add", "trainable": true, "dtype": "float32"}, "inbound_nodes": [[["block_1_project_BN", 0, 0, {}], ["block_2_project_BN", 0, 0, {}]]]}, {"name": "block_3_expand", "class_name": "Conv2D", "config": {"name": "block_3_expand", "trainable": true, "dtype": "float32", "filters": 240, "kernel_size": [1, 1], "strides": [1, 1], "padding": "same", "data_format": "channels_last", "dilation_rate": [1, 1], "activation": "linear", "use_bias": false, "kernel_initializer": {"class_name": "GlorotUniform", "config": {"seed": null}}, "bias_initializer": {"class_name": "Zeros", "config": {}}, "kernel_regularizer": null, "bias_regularizer": null, "activity_regularizer": null, "kernel_constraint": null, "bias_constraint": null}, "inbound_nodes": [[["block_2_add", 0, 0, {}]]]}, {"name": "block_3_expand_BN", "class_name": "BatchNormalization", "config": {"name": "block_3_expand_BN", "trainable": true, "dtype": "float32", "axis": [3], "momentum": 0.999, "epsilon": 0.001, "center": true, "scale": true, "beta_initializer": {"class_name": "Zeros", "config": {}}, "gamma_initializer": {"class_name": "Ones", "config": {}}, "moving_mean_initializer": {"class_name": "Zeros", "config": {}}, "moving_variance_initializer": {"class_name": "Ones", "config": {}}, "beta_regularizer": null, "gamma_regularizer": null, "beta_constraint": null, "gamma_constraint": null}, "inbound_nodes": [[["block_3_expand", 0, 0, {}]]]}, {"name": "block_3_expand_relu", "class_name": "ReLU", "config": {"name": "block_3_expand_relu", "trainable": true, "dtype": "float32", "max_value": 6.0, "negative_slope": 0.0, "threshold": 0.0}, "inbound_nodes": [[["block_3_expand_BN", 0, 0, {}]]]}, {"name": "block_3_pad", "class_name": "ZeroPadding2D", "config": {"name": "block_3_pad", "trainable": true, "dtype": "float32", "padding": [[0, 1], [0, 1]], "data_format": "channels_last"}, "inbound_nodes": [[["block_3_expand_relu", 0, 0, {}]]]}, {"name": "block_3_depthwise", "class_name": "DepthwiseConv2D", "config": {"name": "block_3_depthwise", "trainable": true, "dtype": "float32", "kernel_size": [3, 3], "strides": [2, 2], "padding": "valid", "data_format": "channels_last", "dilation_rate": [1, 1], "activation": "linear", "use_bias": false, "bias_initializer": {"class_name": "Zeros", "config": {}}, "bias_regularizer": null, "activity_regularizer": null, "bias_constraint": null, "depth_multiplier": 1, "depthwise_initializer": {"class_name": "GlorotUniform", "config": {"seed": null}}, "depthwise_regularizer": null, "depthwise_constraint": null}, "inbound_nodes": [[["block_3_pad", 0, 0, {}]]]}, {"name": "block_3_depthwise_BN", "class_name": "BatchNormalization", "config": {"name": "block_3_depthwise_BN", "trainable": true, "dtype": "float32", "axis": [3], "momentum": 0.999, "epsilon": 0.001, "center": true, "scale": true, "beta_initializer": {"class_name": "Zeros", "config": {}}, "gamma_initializer": {"class_name": "Ones", "config": {}}, "moving_mean_initializer": {"class_name": "Zeros", "config": {}}, "moving_variance_initializer": {"class_name": "Ones", "config": {}}, "beta_regularizer": null, "gamma_regularizer": null, "beta_constraint": null, "gamma_constraint": null}, "inbound_nodes": [[["block_3_depthwise", 0, 0, {}]]]}, {"name": "block_3_depthwise_relu", "class_name": "ReLU", "config": {"name": "block_3_depthwise_relu", "trainable": true, "dtype": "float32", "max_value": 6.0, "negative_slope": 0.0, "threshold": 0.0}, "inbound_nodes": [[["block_3_depthwise_BN", 0, 0, {}]]]}, {"name": "block_3_project", "class_name": "Conv2D", "config": {"name": "block_3_project", "trainable": true, "dtype": "float32", "filters": 48, "kernel_size": [1, 1], "strides": [1, 1], "padding": "same", "data_format": "channels_last", "dilation_rate": [1, 1], "activation": "linear", "use_bias": false, "kernel_initializer": {"class_name": "GlorotUniform", "config": {"seed": null}}, "bias_initializer": {"class_name": "Zeros", "config": {}}, "kernel_regularizer": null, "bias_regularizer": null, "activity_regularizer": null, "kernel_constraint": null, "bias_constraint": null}, "inbound_nodes": [[["block_3_depthwise_relu", 0, 0, {}]]]}, {"name": "block_3_project_BN", "class_name": "BatchNormalization", "config": {"name": "block_3_project_BN", "trainable": true, "dtype": "float32", "axis": [3], "momentum": 0.999, "epsilon": 0.001, "center": true, "scale": true, "beta_initializer": {"class_name": "Zeros", "config": {}}, "gamma_initializer": {"class_name": "Ones", "config": {}}, "moving_mean_initializer": {"class_name": "Zeros", "config": {}}, "moving_variance_initializer": {"class_name": "Ones", "config": {}}, "beta_regularizer": null, "gamma_regularizer": null, "beta_constraint": null, "gamma_constraint": null}, "inbound_nodes": [[["block_3_project", 0, 0, {}]]]}, {"name": "block_4_expand", "class_name": "Conv2D", "config": {"name": "block_4_expand", "trainable": true, "dtype": "float32", "filters": 288, "kernel_size": [1, 1], "strides": [1, 1], "padding": "same", "data_format": "channels_last", "dilation_rate": [1, 1], "activation": "linear", "use_bias": false, "kernel_initializer": {"class_name": "GlorotUniform", "config": {"seed": null}}, "bias_initializer": {"class_name": "Zeros", "config": {}}, "kernel_regularizer": null, "bias_regularizer": null, "activity_regularizer": null, "kernel_constraint": null, "bias_constraint": null}, "inbound_nodes": [[["block_3_project_BN", 0, 0, {}]]]}, {"name": "block_4_expand_BN", "class_name": "BatchNormalization", "config": {"name": "block_4_expand_BN", "trainable": true, "dtype": "float32", "axis": [3], "momentum": 0.999, "epsilon": 0.001, "center": true, "scale": true, "beta_initializer": {"class_name": "Zeros", "config": {}}, "gamma_initializer": {"class_name": "Ones", "config": {}}, "moving_mean_initializer": {"class_name": "Zeros", "config": {}}, "moving_variance_initializer": {"class_name": "Ones", "config": {}}, "beta_regularizer": null, "gamma_regularizer": null, "beta_constraint": null, "gamma_constraint": null}, "inbound_nodes": [[["block_4_expand", 0, 0, {}]]]}, {"name": "block_4_expand_relu", "class_name": "ReLU", "config": {"name": "block_4_expand_relu", "trainable": true, "dtype": "float32", "max_value": 6.0, "negative_slope": 0.0, "threshold": 0.0}, "inbound_nodes": [[["block_4_expand_BN", 0, 0, {}]]]}, {"name": "block_4_depthwise", "class_name": "DepthwiseConv2D", "config": {"name": "block_4_depthwise", "trainable": true, "dtype": "float32", "kernel_size": [3, 3], "strides": [1, 1], "padding": "same", "data_format": "channels_last", "dilation_rate": [1, 1], "activation": "linear", "use_bias": false, "bias_initializer": {"class_name": "Zeros", "config": {}}, "bias_regularizer": null, "activity_regularizer": null, "bias_constraint": null, "depth_multiplier": 1, "depthwise_initializer": {"class_name": "GlorotUniform", "config": {"seed": null}}, "depthwise_regularizer": null, "depthwise_constraint": null}, "inbound_nodes": [[["block_4_expand_relu", 0, 0, {}]]]}, {"name": "block_4_depthwise_BN", "class_name": "BatchNormalization", "config": {"name": "block_4_depthwise_BN", "trainable": true, "dtype": "float32", "axis": [3], "momentum": 0.999, "epsilon": 0.001, "center": true, "scale": true, "beta_initializer": {"class_name": "Zeros", "config": {}}, "gamma_initializer": {"class_name": "Ones", "config": {}}, "moving_mean_initializer": {"class_name": "Zeros", "config": {}}, "moving_variance_initializer": {"class_name": "Ones", "config": {}}, "beta_regularizer": null, "gamma_regularizer": null, "beta_constraint": null, "gamma_constraint": null}, "inbound_nodes": [[["block_4_depthwise", 0, 0, {}]]]}, {"name": "block_4_depthwise_relu", "class_name": "ReLU", "config": {"name": "block_4_depthwise_relu", "trainable": true, "dtype": "float32", "max_value": 6.0, "negative_slope": 0.0, "threshold": 0.0}, "inbound_nodes": [[["block_4_depthwise_BN", 0, 0, {}]]]}, {"name": "block_4_project", "class_name": "Conv2D", "config": {"name": "block_4_project", "trainable": true, "dtype": "float32", "filters": 48, "kernel_size": [1, 1], "strides": [1, 1], "padding": "same", "data_format": "channels_last", "dilation_rate": [1, 1], "activation": "linear", "use_bias": false, "kernel_initializer": {"class_name": "GlorotUniform", "config": {"seed": null}}, "bias_initializer": {"class_name": "Zeros", "config": {}}, "kernel_regularizer": null, "bias_regularizer": null, "activity_regularizer": null, "kernel_constraint": null, "bias_constraint": null}, "inbound_nodes": [[["block_4_depthwise_relu", 0, 0, {}]]]}, {"name": "block_4_project_BN", "class_name": "BatchNormalization", "config": {"name": "block_4_project_BN", "trainable": true, "dtype": "float32", "axis": [3], "momentum": 0.999, "epsilon": 0.001, "center": true, "scale": true, "beta_initializer": {"class_name": "Zeros", "config": {}}, "gamma_initializer": {"class_name": "Ones", "config": {}}, "moving_mean_initializer": {"class_name": "Zeros", "config": {}}, "moving_variance_initializer": {"class_name": "Ones", "config": {}}, "beta_regularizer": null, "gamma_regularizer": null, "beta_constraint": null, "gamma_constraint": null}, "inbound_nodes": [[["block_4_project", 0, 0, {}]]]}, {"name": "block_4_add", "class_name": "Add", "config": {"name": "block_4_add", "trainable": true, "dtype": "float32"}, "inbound_nodes": [[["block_3_project_BN", 0, 0, {}], ["block_4_project_BN", 0, 0, {}]]]}, {"name": "block_5_expand", "class_name": "Conv2D", "config": {"name": "block_5_expand", "trainable": true, "dtype": "float32", "filters": 288, "kernel_size": [1, 1], "strides": [1, 1], "padding": "same", "data_format": "channels_last", "dilation_rate": [1, 1], "activation": "linear", "use_bias": false, "kernel_initializer": {"class_name": "GlorotUniform", "config": {"seed": null}}, "bias_initializer": {"class_name": "Zeros", "config": {}}, "kernel_regularizer": null, "bias_regularizer": null, "activity_regularizer": null, "kernel_constraint": null, "bias_constraint": null}, "inbound_nodes": [[["block_4_add", 0, 0, {}]]]}, {"name": "block_5_expand_BN", "class_name": "BatchNormalization", "config": {"name": "block_5_expand_BN", "trainable": true, "dtype": "float32", "axis": [3], "momentum": 0.999, "epsilon": 0.001, "center": true, "scale": true, "beta_initializer": {"class_name": "Zeros", "config": {}}, "gamma_initializer": {"class_name": "Ones", "config": {}}, "moving_mean_initializer": {"class_name": "Zeros", "config": {}}, "moving_variance_initializer": {"class_name": "Ones", "config": {}}, "beta_regularizer": null, "gamma_regularizer": null, "beta_constraint": null, "gamma_constraint": null}, "inbound_nodes": [[["block_5_expand", 0, 0, {}]]]}, {"name": "block_5_expand_relu", "class_name": "ReLU", "config": {"name": "block_5_expand_relu", "trainable": true, "dtype": "float32", "max_value": 6.0, "negative_slope": 0.0, "threshold": 0.0}, "inbound_nodes": [[["block_5_expand_BN", 0, 0, {}]]]}, {"name": "block_5_depthwise", "class_name": "DepthwiseConv2D", "config": {"name": "block_5_depthwise", "trainable": true, "dtype": "float32", "kernel_size": [3, 3], "strides": [1, 1], "padding": "same", "data_format": "channels_last", "dilation_rate": [1, 1], "activation": "linear", "use_bias": false, "bias_initializer": {"class_name": "Zeros", "config": {}}, "bias_regularizer": null, "activity_regularizer": null, "bias_constraint": null, "depth_multiplier": 1, "depthwise_initializer": {"class_name": "GlorotUniform", "config": {"seed": null}}, "depthwise_regularizer": null, "depthwise_constraint": null}, "inbound_nodes": [[["block_5_expand_relu", 0, 0, {}]]]}, {"name": "block_5_depthwise_BN", "class_name": "BatchNormalization", "config": {"name": "block_5_depthwise_BN", "trainable": true, "dtype": "float32", "axis": [3], "momentum": 0.999, "epsilon": 0.001, "center": true, "scale": true, "beta_initializer": {"class_name": "Zeros", "config": {}}, "gamma_initializer": {"class_name": "Ones", "config": {}}, "moving_mean_initializer": {"class_name": "Zeros", "config": {}}, "moving_variance_initializer": {"class_name": "Ones", "config": {}}, "beta_regularizer": null, "gamma_regularizer": null, "beta_constraint": null, "gamma_constraint": null}, "inbound_nodes": [[["block_5_depthwise", 0, 0, {}]]]}, {"name": "block_5_depthwise_relu", "class_name": "ReLU", "config": {"name": "block_5_depthwise_relu", "trainable": true, "dtype": "float32", "max_value": 6.0, "negative_slope": 0.0, "threshold": 0.0}, "inbound_nodes": [[["block_5_depthwise_BN", 0, 0, {}]]]}, {"name": "block_5_project", "class_name": "Conv2D", "config": {"name": "block_5_project", "trainable": true, "dtype": "float32", "filters": 48, "kernel_size": [1, 1], "strides": [1, 1], "padding": "same", "data_format": "channels_last", "dilation_rate": [1, 1], "activation": "linear", "use_bias": false, "kernel_initializer": {"class_name": "GlorotUniform", "config": {"seed": null}}, "bias_initializer": {"class_name": "Zeros", "config": {}}, "kernel_regularizer": null, "bias_regularizer": null, "activity_regularizer": null, "kernel_constraint": null, "bias_constraint": null}, "inbound_nodes": [[["block_5_depthwise_relu", 0, 0, {}]]]}, {"name": "block_5_project_BN", "class_name": "BatchNormalization", "config": {"name": "block_5_project_BN", "trainable": true, "dtype": "float32", "axis": [3], "momentum": 0.999, "epsilon": 0.001, "center": true, "scale": true, "beta_initializer": {"class_name": "Zeros", "config": {}}, "gamma_initializer": {"class_name": "Ones", "config": {}}, "moving_mean_initializer": {"class_name": "Zeros", "config": {}}, "moving_variance_initializer": {"class_name": "Ones", "config": {}}, "beta_regularizer": null, "gamma_regularizer": null, "beta_constraint": null, "gamma_constraint": null}, "inbound_nodes": [[["block_5_project", 0, 0, {}]]]}, {"name": "block_5_add", "class_name": "Add", "config": {"name": "block_5_add", "trainable": true, "dtype": "float32"}, "inbound_nodes": [[["block_4_add", 0, 0, {}], ["block_5_project_BN", 0, 0, {}]]]}, {"name": "block_6_expand", "class_name": "Conv2D", "config": {"name": "block_6_expand", "trainable": true, "dtype": "float32", "filters": 288, "kernel_size": [1, 1], "strides": [1, 1], "padding": "same", "data_format": "channels_last", "dilation_rate": [1, 1], "activation": "linear", "use_bias": false, "kernel_initializer": {"class_name": "GlorotUniform", "config": {"seed": null}}, "bias_initializer": {"class_name": "Zeros", "config": {}}, "kernel_regularizer": null, "bias_regularizer": null, "activity_regularizer": null, "kernel_constraint": null, "bias_constraint": null}, "inbound_nodes": [[["block_5_add", 0, 0, {}]]]}, {"name": "block_6_expand_BN", "class_name": "BatchNormalization", "config": {"name": "block_6_expand_BN", "trainable": true, "dtype": "float32", "axis": [3], "momentum": 0.999, "epsilon": 0.001, "center": true, "scale": true, "beta_initializer": {"class_name": "Zeros", "config": {}}, "gamma_initializer": {"class_name": "Ones", "config": {}}, "moving_mean_initializer": {"class_name": "Zeros", "config": {}}, "moving_variance_initializer": {"class_name": "Ones", "config": {}}, "beta_regularizer": null, "gamma_regularizer": null, "beta_constraint": null, "gamma_constraint": null}, "inbound_nodes": [[["block_6_expand", 0, 0, {}]]]}, {"name": "block_6_expand_relu", "class_name": "ReLU", "config": {"name": "block_6_expand_relu", "trainable": true, "dtype": "float32", "max_value": 6.0, "negative_slope": 0.0, "threshold": 0.0}, "inbound_nodes": [[["block_6_expand_BN", 0, 0, {}]]]}, {"name": "block_6_pad", "class_name": "ZeroPadding2D", "config": {"name": "block_6_pad", "trainable": true, "dtype": "float32", "padding": [[0, 1], [0, 1]], "data_format": "channels_last"}, "inbound_nodes": [[["block_6_expand_relu", 0, 0, {}]]]}, {"name": "block_6_depthwise", "class_name": "DepthwiseConv2D", "config": {"name": "block_6_depthwise", "trainable": true, "dtype": "float32", "kernel_size": [3, 3], "strides": [2, 2], "padding": "valid", "data_format": "channels_last", "dilation_rate": [1, 1], "activation": "linear", "use_bias": false, "bias_initializer": {"class_name": "Zeros", "config": {}}, "bias_regularizer": null, "activity_regularizer": null, "bias_constraint": null, "depth_multiplier": 1, "depthwise_initializer": {"class_name": "GlorotUniform", "config": {"seed": null}}, "depthwise_regularizer": null, "depthwise_constraint": null}, "inbound_nodes": [[["block_6_pad", 0, 0, {}]]]}, {"name": "block_6_depthwise_BN", "class_name": "BatchNormalization", "config": {"name": "block_6_depthwise_BN", "trainable": true, "dtype": "float32", "axis": [3], "momentum": 0.999, "epsilon": 0.001, "center": true, "scale": true, "beta_initializer": {"class_name": "Zeros", "config": {}}, "gamma_initializer": {"class_name": "Ones", "config": {}}, "moving_mean_initializer": {"class_name": "Zeros", "config": {}}, "moving_variance_initializer": {"class_name": "Ones", "config": {}}, "beta_regularizer": null, "gamma_regularizer": null, "beta_constraint": null, "gamma_constraint": null}, "inbound_nodes": [[["block_6_depthwise", 0, 0, {}]]]}, {"name": "block_6_depthwise_relu", "class_name": "ReLU", "config": {"name": "block_6_depthwise_relu", "trainable": true, "dtype": "float32", "max_value": 6.0, "negative_slope": 0.0, "threshold": 0.0}, "inbound_nodes": [[["block_6_depthwise_BN", 0, 0, {}]]]}, {"name": "block_6_project", "class_name": "Conv2D", "config": {"name": "block_6_project", "trainable": true, "dtype": "float32", "filters": 96, "kernel_size": [1, 1], "strides": [1, 1], "padding": "same", "data_format": "channels_last", "dilation_rate": [1, 1], "activation": "linear", "use_bias": false, "kernel_initializer": {"class_name": "GlorotUniform", "config": {"seed": null}}, "bias_initializer": {"class_name": "Zeros", "config": {}}, "kernel_regularizer": null, "bias_regularizer": null, "activity_regularizer": null, "kernel_constraint": null, "bias_constraint": null}, "inbound_nodes": [[["block_6_depthwise_relu", 0, 0, {}]]]}, {"name": "block_6_project_BN", "class_name": "BatchNormalization", "config": {"name": "block_6_project_BN", "trainable": true, "dtype": "float32", "axis": [3], "momentum": 0.999, "epsilon": 0.001, "center": true, "scale": true, "beta_initializer": {"class_name": "Zeros", "config": {}}, "gamma_initializer": {"class_name": "Ones", "config": {}}, "moving_mean_initializer": {"class_name": "Zeros", "config": {}}, "moving_variance_initializer": {"class_name": "Ones", "config": {}}, "beta_regularizer": null, "gamma_regularizer": null, "beta_constraint": null, "gamma_constraint": null}, "inbound_nodes": [[["block_6_project", 0, 0, {}]]]}, {"name": "block_7_expand", "class_name": "Conv2D", "config": {"name": "block_7_expand", "trainable": true, "dtype": "float32", "filters": 576, "kernel_size": [1, 1], "strides": [1, 1], "padding": "same", "data_format": "channels_last", "dilation_rate": [1, 1], "activation": "linear", "use_bias": false, "kernel_initializer": {"class_name": "GlorotUniform", "config": {"seed": null}}, "bias_initializer": {"class_name": "Zeros", "config": {}}, "kernel_regularizer": null, "bias_regularizer": null, "activity_regularizer": null, "kernel_constraint": null, "bias_constraint": null}, "inbound_nodes": [[["block_6_project_BN", 0, 0, {}]]]}, {"name": "block_7_expand_BN", "class_name": "BatchNormalization", "config": {"name": "block_7_expand_BN", "trainable": true, "dtype": "float32", "axis": [3], "momentum": 0.999, "epsilon": 0.001, "center": true, "scale": true, "beta_initializer": {"class_name": "Zeros", "config": {}}, "gamma_initializer": {"class_name": "Ones", "config": {}}, "moving_mean_initializer": {"class_name": "Zeros", "config": {}}, "moving_variance_initializer": {"class_name": "Ones", "config": {}}, "beta_regularizer": null, "gamma_regularizer": null, "beta_constraint": null, "gamma_constraint": null}, "inbound_nodes": [[["block_7_expand", 0, 0, {}]]]}, {"name": "block_7_expand_relu", "class_name": "ReLU", "config": {"name": "block_7_expand_relu", "trainable": true, "dtype": "float32", "max_value": 6.0, "negative_slope": 0.0, "threshold": 0.0}, "inbound_nodes": [[["block_7_expand_BN", 0, 0, {}]]]}, {"name": "block_7_depthwise", "class_name": "DepthwiseConv2D", "config": {"name": "block_7_depthwise", "trainable": true, "dtype": "float32", "kernel_size": [3, 3], "strides": [1, 1], "padding": "same", "data_format": "channels_last", "dilation_rate": [1, 1], "activation": "linear", "use_bias": false, "bias_initializer": {"class_name": "Zeros", "config": {}}, "bias_regularizer": null, "activity_regularizer": null, "bias_constraint": null, "depth_multiplier": 1, "depthwise_initializer": {"class_name": "GlorotUniform", "config": {"seed": null}}, "depthwise_regularizer": null, "depthwise_constraint": null}, "inbound_nodes": [[["block_7_expand_relu", 0, 0, {}]]]}, {"name": "block_7_depthwise_BN", "class_name": "BatchNormalization", "config": {"name": "block_7_depthwise_BN", "trainable": true, "dtype": "float32", "axis": [3], "momentum": 0.999, "epsilon": 0.001, "center": true, "scale": true, "beta_initializer": {"class_name": "Zeros", "config": {}}, "gamma_initializer": {"class_name": "Ones", "config": {}}, "moving_mean_initializer": {"class_name": "Zeros", "config": {}}, "moving_variance_initializer": {"class_name": "Ones", "config": {}}, "beta_regularizer": null, "gamma_regularizer": null, "beta_constraint": null, "gamma_constraint": null}, "inbound_nodes": [[["block_7_depthwise", 0, 0, {}]]]}, {"name": "block_7_depthwise_relu", "class_name": "ReLU", "config": {"name": "block_7_depthwise_relu", "trainable": true, "dtype": "float32", "max_value": 6.0, "negative_slope": 0.0, "threshold": 0.0}, "inbound_nodes": [[["block_7_depthwise_BN", 0, 0, {}]]]}, {"name": "block_7_project", "class_name": "Conv2D", "config": {"name": "block_7_project", "trainable": true, "dtype": "float32", "filters": 96, "kernel_size": [1, 1], "strides": [1, 1], "padding": "same", "data_format": "channels_last", "dilation_rate": [1, 1], "activation": "linear", "use_bias": false, "kernel_initializer": {"class_name": "GlorotUniform", "config": {"seed": null}}, "bias_initializer": {"class_name": "Zeros", "config": {}}, "kernel_regularizer": null, "bias_regularizer": null, "activity_regularizer": null, "kernel_constraint": null, "bias_constraint": null}, "inbound_nodes": [[["block_7_depthwise_relu", 0, 0, {}]]]}, {"name": "block_7_project_BN", "class_name": "BatchNormalization", "config": {"name": "block_7_project_BN", "trainable": true, "dtype": "float32", "axis": [3], "momentum": 0.999, "epsilon": 0.001, "center": true, "scale": true, "beta_initializer": {"class_name": "Zeros", "config": {}}, "gamma_initializer": {"class_name": "Ones", "config": {}}, "moving_mean_initializer": {"class_name": "Zeros", "config": {}}, "moving_variance_initializer": {"class_name": "Ones", "config": {}}, "beta_regularizer": null, "gamma_regularizer": null, "beta_constraint": null, "gamma_constraint": null}, "inbound_nodes": [[["block_7_project", 0, 0, {}]]]}, {"name": "block_7_add", "class_name": "Add", "config": {"name": "block_7_add", "trainable": true, "dtype": "float32"}, "inbound_nodes": [[["block_6_project_BN", 0, 0, {}], ["block_7_project_BN", 0, 0, {}]]]}, {"name": "block_8_expand", "class_name": "Conv2D", "config": {"name": "block_8_expand", "trainable": true, "dtype": "float32", "filters": 576, "kernel_size": [1, 1], "strides": [1, 1], "padding": "same", "data_format": "channels_last", "dilation_rate": [1, 1], "activation": "linear", "use_bias": false, "kernel_initializer": {"class_name": "GlorotUniform", "config": {"seed": null}}, "bias_initializer": {"class_name": "Zeros", "config": {}}, "kernel_regularizer": null, "bias_regularizer": null, "activity_regularizer": null, "kernel_constraint": null, "bias_constraint": null}, "inbound_nodes": [[["block_7_add", 0, 0, {}]]]}, {"name": "block_8_expand_BN", "class_name": "BatchNormalization", "config": {"name": "block_8_expand_BN", "trainable": true, "dtype": "float32", "axis": [3], "momentum": 0.999, "epsilon": 0.001, "center": true, "scale": true, "beta_initializer": {"class_name": "Zeros", "config": {}}, "gamma_initializer": {"class_name": "Ones", "config": {}}, "moving_mean_initializer": {"class_name": "Zeros", "config": {}}, "moving_variance_initializer": {"class_name": "Ones", "config": {}}, "beta_regularizer": null, "gamma_regularizer": null, "beta_constraint": null, "gamma_constraint": null}, "inbound_nodes": [[["block_8_expand", 0, 0, {}]]]}, {"name": "block_8_expand_relu", "class_name": "ReLU", "config": {"name": "block_8_expand_relu", "trainable": true, "dtype": "float32", "max_value": 6.0, "negative_slope": 0.0, "threshold": 0.0}, "inbound_nodes": [[["block_8_expand_BN", 0, 0, {}]]]}, {"name": "block_8_depthwise", "class_name": "DepthwiseConv2D", "config": {"name": "block_8_depthwise", "trainable": true, "dtype": "float32", "kernel_size": [3, 3], "strides": [1, 1], "padding": "same", "data_format": "channels_last", "dilation_rate": [1, 1], "activation": "linear", "use_bias": false, "bias_initializer": {"class_name": "Zeros", "config": {}}, "bias_regularizer": null, "activity_regularizer": null, "bias_constraint": null, "depth_multiplier": 1, "depthwise_initializer": {"class_name": "GlorotUniform", "config": {"seed": null}}, "depthwise_regularizer": null, "depthwise_constraint": null}, "inbound_nodes": [[["block_8_expand_relu", 0, 0, {}]]]}, {"name": "block_8_depthwise_BN", "class_name": "BatchNormalization", "config": {"name": "block_8_depthwise_BN", "trainable": true, "dtype": "float32", "axis": [3], "momentum": 0.999, "epsilon": 0.001, "center": true, "scale": true, "beta_initializer": {"class_name": "Zeros", "config": {}}, "gamma_initializer": {"class_name": "Ones", "config": {}}, "moving_mean_initializer": {"class_name": "Zeros", "config": {}}, "moving_variance_initializer": {"class_name": "Ones", "config": {}}, "beta_regularizer": null, "gamma_regularizer": null, "beta_constraint": null, "gamma_constraint": null}, "inbound_nodes": [[["block_8_depthwise", 0, 0, {}]]]}, {"name": "block_8_depthwise_relu", "class_name": "ReLU", "config": {"name": "block_8_depthwise_relu", "trainable": true, "dtype": "float32", "max_value": 6.0, "negative_slope": 0.0, "threshold": 0.0}, "inbound_nodes": [[["block_8_depthwise_BN", 0, 0, {}]]]}, {"name": "block_8_project", "class_name": "Conv2D", "config": {"name": "block_8_project", "trainable": true, "dtype": "float32", "filters": 96, "kernel_size": [1, 1], "strides": [1, 1], "padding": "same", "data_format": "channels_last", "dilation_rate": [1, 1], "activation": "linear", "use_bias": false, "kernel_initializer": {"class_name": "GlorotUniform", "config": {"seed": null}}, "bias_initializer": {"class_name": "Zeros", "config": {}}, "kernel_regularizer": null, "bias_regularizer": null, "activity_regularizer": null, "kernel_constraint": null, "bias_constraint": null}, "inbound_nodes": [[["block_8_depthwise_relu", 0, 0, {}]]]}, {"name": "block_8_project_BN", "class_name": "BatchNormalization", "config": {"name": "block_8_project_BN", "trainable": true, "dtype": "float32", "axis": [3], "momentum": 0.999, "epsilon": 0.001, "center": true, "scale": true, "beta_initializer": {"class_name": "Zeros", "config": {}}, "gamma_initializer": {"class_name": "Ones", "config": {}}, "moving_mean_initializer": {"class_name": "Zeros", "config": {}}, "moving_variance_initializer": {"class_name": "Ones", "config": {}}, "beta_regularizer": null, "gamma_regularizer": null, "beta_constraint": null, "gamma_constraint": null}, "inbound_nodes": [[["block_8_project", 0, 0, {}]]]}, {"name": "block_8_add", "class_name": "Add", "config": {"name": "block_8_add", "trainable": true, "dtype": "float32"}, "inbound_nodes": [[["block_7_add", 0, 0, {}], ["block_8_project_BN", 0, 0, {}]]]}, {"name": "block_9_expand", "class_name": "Conv2D", "config": {"name": "block_9_expand", "trainable": true, "dtype": "float32", "filters": 576, "kernel_size": [1, 1], "strides": [1, 1], "padding": "same", "data_format": "channels_last", "dilation_rate": [1, 1], "activation": "linear", "use_bias": false, "kernel_initializer": {"class_name": "GlorotUniform", "config": {"seed": null}}, "bias_initializer": {"class_name": "Zeros", "config": {}}, "kernel_regularizer": null, "bias_regularizer": null, "activity_regularizer": null, "kernel_constraint": null, "bias_constraint": null}, "inbound_nodes": [[["block_8_add", 0, 0, {}]]]}, {"name": "block_9_expand_BN", "class_name": "BatchNormalization", "config": {"name": "block_9_expand_BN", "trainable": true, "dtype": "float32", "axis": [3], "momentum": 0.999, "epsilon": 0.001, "center": true, "scale": true, "beta_initializer": {"class_name": "Zeros", "config": {}}, "gamma_initializer": {"class_name": "Ones", "config": {}}, "moving_mean_initializer": {"class_name": "Zeros", "config": {}}, "moving_variance_initializer": {"class_name": "Ones", "config": {}}, "beta_regularizer": null, "gamma_regularizer": null, "beta_constraint": null, "gamma_constraint": null}, "inbound_nodes": [[["block_9_expand", 0, 0, {}]]]}, {"name": "block_9_expand_relu", "class_name": "ReLU", "config": {"name": "block_9_expand_relu", "trainable": true, "dtype": "float32", "max_value": 6.0, "negative_slope": 0.0, "threshold": 0.0}, "inbound_nodes": [[["block_9_expand_BN", 0, 0, {}]]]}, {"name": "block_9_depthwise", "class_name": "DepthwiseConv2D", "config": {"name": "block_9_depthwise", "trainable": true, "dtype": "float32", "kernel_size": [3, 3], "strides": [1, 1], "padding": "same", "data_format": "channels_last", "dilation_rate": [1, 1], "activation": "linear", "use_bias": false, "bias_initializer": {"class_name": "Zeros", "config": {}}, "bias_regularizer": null, "activity_regularizer": null, "bias_constraint": null, "depth_multiplier": 1, "depthwise_initializer": {"class_name": "GlorotUniform", "config": {"seed": null}}, "depthwise_regularizer": null, "depthwise_constraint": null}, "inbound_nodes": [[["block_9_expand_relu", 0, 0, {}]]]}, {"name": "block_9_depthwise_BN", "class_name": "BatchNormalization", "config": {"name": "block_9_depthwise_BN", "trainable": true, "dtype": "float32", "axis": [3], "momentum": 0.999, "epsilon": 0.001, "center": true, "scale": true, "beta_initializer": {"class_name": "Zeros", "config": {}}, "gamma_initializer": {"class_name": "Ones", "config": {}}, "moving_mean_initializer": {"class_name": "Zeros", "config": {}}, "moving_variance_initializer": {"class_name": "Ones", "config": {}}, "beta_regularizer": null, "gamma_regularizer": null, "beta_constraint": null, "gamma_constraint": null}, "inbound_nodes": [[["block_9_depthwise", 0, 0, {}]]]}, {"name": "block_9_depthwise_relu", "class_name": "ReLU", "config": {"name": "block_9_depthwise_relu", "trainable": true, "dtype": "float32", "max_value": 6.0, "negative_slope": 0.0, "threshold": 0.0}, "inbound_nodes": [[["block_9_depthwise_BN", 0, 0, {}]]]}, {"name": "block_9_project", "class_name": "Conv2D", "config": {"name": "block_9_project", "trainable": true, "dtype": "float32", "filters": 96, "kernel_size": [1, 1], "strides": [1, 1], "padding": "same", "data_format": "channels_last", "dilation_rate": [1, 1], "activation": "linear", "use_bias": false, "kernel_initializer": {"class_name": "GlorotUniform", "config": {"seed": null}}, "bias_initializer": {"class_name": "Zeros", "config": {}}, "kernel_regularizer": null, "bias_regularizer": null, "activity_regularizer": null, "kernel_constraint": null, "bias_constraint": null}, "inbound_nodes": [[["block_9_depthwise_relu", 0, 0, {}]]]}, {"name": "block_9_project_BN", "class_name": "BatchNormalization", "config": {"name": "block_9_project_BN", "trainable": true, "dtype": "float32", "axis": [3], "momentum": 0.999, "epsilon": 0.001, "center": true, "scale": true, "beta_initializer": {"class_name": "Zeros", "config": {}}, "gamma_initializer": {"class_name": "Ones", "config": {}}, "moving_mean_initializer": {"class_name": "Zeros", "config": {}}, "moving_variance_initializer": {"class_name": "Ones", "config": {}}, "beta_regularizer": null, "gamma_regularizer": null, "beta_constraint": null, "gamma_constraint": null}, "inbound_nodes": [[["block_9_project", 0, 0, {}]]]}, {"name": "block_9_add", "class_name": "Add", "config": {"name": "block_9_add", "trainable": true, "dtype": "float32"}, "inbound_nodes": [[["block_8_add", 0, 0, {}], ["block_9_project_BN", 0, 0, {}]]]}, {"name": "block_10_expand", "class_name": "Conv2D", "config": {"name": "block_10_expand", "trainable": true, "dtype": "float32", "filters": 576, "kernel_size": [1, 1], "strides": [1, 1], "padding": "same", "data_format": "channels_last", "dilation_rate": [1, 1], "activation": "linear", "use_bias": false, "kernel_initializer": {"class_name": "GlorotUniform", "config": {"seed": null}}, "bias_initializer": {"class_name": "Zeros", "config": {}}, "kernel_regularizer": null, "bias_regularizer": null, "activity_regularizer": null, "kernel_constraint": null, "bias_constraint": null}, "inbound_nodes": [[["block_9_add", 0, 0, {}]]]}, {"name": "block_10_expand_BN", "class_name": "BatchNormalization", "config": {"name": "block_10_expand_BN", "trainable": true, "dtype": "float32", "axis": [3], "momentum": 0.999, "epsilon": 0.001, "center": true, "scale": true, "beta_initializer": {"class_name": "Zeros", "config": {}}, "gamma_initializer": {"class_name": "Ones", "config": {}}, "moving_mean_initializer": {"class_name": "Zeros", "config": {}}, "moving_variance_initializer": {"class_name": "Ones", "config": {}}, "beta_regularizer": null, "gamma_regularizer": null, "beta_constraint": null, "gamma_constraint": null}, "inbound_nodes": [[["block_10_expand", 0, 0, {}]]]}, {"name": "block_10_expand_relu", "class_name": "ReLU", "config": {"name": "block_10_expand_relu", "trainable": true, "dtype": "float32", "max_value": 6.0, "negative_slope": 0.0, "threshold": 0.0}, "inbound_nodes": [[["block_10_expand_BN", 0, 0, {}]]]}, {"name": "block_10_depthwise", "class_name": "DepthwiseConv2D", "config": {"name": "block_10_depthwise", "trainable": true, "dtype": "float32", "kernel_size": [3, 3], "strides": [1, 1], "padding": "same", "data_format": "channels_last", "dilation_rate": [1, 1], "activation": "linear", "use_bias": false, "bias_initializer": {"class_name": "Zeros", "config": {}}, "bias_regularizer": null, "activity_regularizer": null, "bias_constraint": null, "depth_multiplier": 1, "depthwise_initializer": {"class_name": "GlorotUniform", "config": {"seed": null}}, "depthwise_regularizer": null, "depthwise_constraint": null}, "inbound_nodes": [[["block_10_expand_relu", 0, 0, {}]]]}, {"name": "block_10_depthwise_BN", "class_name": "BatchNormalization", "config": {"name": "block_10_depthwise_BN", "trainable": true, "dtype": "float32", "axis": [3], "momentum": 0.999, "epsilon": 0.001, "center": true, "scale": true, "beta_initializer": {"class_name": "Zeros", "config": {}}, "gamma_initializer": {"class_name": "Ones", "config": {}}, "moving_mean_initializer": {"class_name": "Zeros", "config": {}}, "moving_variance_initializer": {"class_name": "Ones", "config": {}}, "beta_regularizer": null, "gamma_regularizer": null, "beta_constraint": null, "gamma_constraint": null}, "inbound_nodes": [[["block_10_depthwise", 0, 0, {}]]]}, {"name": "block_10_depthwise_relu", "class_name": "ReLU", "config": {"name": "block_10_depthwise_relu", "trainable": true, "dtype": "float32", "max_value": 6.0, "negative_slope": 0.0, "threshold": 0.0}, "inbound_nodes": [[["block_10_depthwise_BN", 0, 0, {}]]]}, {"name": "block_10_project", "class_name": "Conv2D", "config": {"name": "block_10_project", "trainable": true, "dtype": "float32", "filters": 144, "kernel_size": [1, 1], "strides": [1, 1], "padding": "same", "data_format": "channels_last", "dilation_rate": [1, 1], "activation": "linear", "use_bias": false, "kernel_initializer": {"class_name": "GlorotUniform", "config": {"seed": null}}, "bias_initializer": {"class_name": "Zeros", "config": {}}, "kernel_regularizer": null, "bias_regularizer": null, "activity_regularizer": null, "kernel_constraint": null, "bias_constraint": null}, "inbound_nodes": [[["block_10_depthwise_relu", 0, 0, {}]]]}, {"name": "block_10_project_BN", "class_name": "BatchNormalization", "config": {"name": "block_10_project_BN", "trainable": true, "dtype": "float32", "axis": [3], "momentum": 0.999, "epsilon": 0.001, "center": true, "scale": true, "beta_initializer": {"class_name": "Zeros", "config": {}}, "gamma_initializer": {"class_name": "Ones", "config": {}}, "moving_mean_initializer": {"class_name": "Zeros", "config": {}}, "moving_variance_initializer": {"class_name": "Ones", "config": {}}, "beta_regularizer": null, "gamma_regularizer": null, "beta_constraint": null, "gamma_constraint": null}, "inbound_nodes": [[["block_10_project", 0, 0, {}]]]}, {"name": "block_11_expand", "class_name": "Conv2D", "config": {"name": "block_11_expand", "trainable": true, "dtype": "float32", "filters": 864, "kernel_size": [1, 1], "strides": [1, 1], "padding": "same", "data_format": "channels_last", "dilation_rate": [1, 1], "activation": "linear", "use_bias": false, "kernel_initializer": {"class_name": "GlorotUniform", "config": {"seed": null}}, "bias_initializer": {"class_name": "Zeros", "config": {}}, "kernel_regularizer": null, "bias_regularizer": null, "activity_regularizer": null, "kernel_constraint": null, "bias_constraint": null}, "inbound_nodes": [[["block_10_project_BN", 0, 0, {}]]]}, {"name": "block_11_expand_BN", "class_name": "BatchNormalization", "config": {"name": "block_11_expand_BN", "trainable": true, "dtype": "float32", "axis": [3], "momentum": 0.999, "epsilon": 0.001, "center": true, "scale": true, "beta_initializer": {"class_name": "Zeros", "config": {}}, "gamma_initializer": {"class_name": "Ones", "config": {}}, "moving_mean_initializer": {"class_name": "Zeros", "config": {}}, "moving_variance_initializer": {"class_name": "Ones", "config": {}}, "beta_regularizer": null, "gamma_regularizer": null, "beta_constraint": null, "gamma_constraint": null}, "inbound_nodes": [[["block_11_expand", 0, 0, {}]]]}, {"name": "block_11_expand_relu", "class_name": "ReLU", "config": {"name": "block_11_expand_relu", "trainable": true, "dtype": "float32", "max_value": 6.0, "negative_slope": 0.0, "threshold": 0.0}, "inbound_nodes": [[["block_11_expand_BN", 0, 0, {}]]]}, {"name": "block_11_depthwise", "class_name": "DepthwiseConv2D", "config": {"name": "block_11_depthwise", "trainable": true, "dtype": "float32", "kernel_size": [3, 3], "strides": [1, 1], "padding": "same", "data_format": "channels_last", "dilation_rate": [1, 1], "activation": "linear", "use_bias": false, "bias_initializer": {"class_name": "Zeros", "config": {}}, "bias_regularizer": null, "activity_regularizer": null, "bias_constraint": null, "depth_multiplier": 1, "depthwise_initializer": {"class_name": "GlorotUniform", "config": {"seed": null}}, "depthwise_regularizer": null, "depthwise_constraint": null}, "inbound_nodes": [[["block_11_expand_relu", 0, 0, {}]]]}, {"name": "block_11_depthwise_BN", "class_name": "BatchNormalization", "config": {"name": "block_11_depthwise_BN", "trainable": true, "dtype": "float32", "axis": [3], "momentum": 0.999, "epsilon": 0.001, "center": true, "scale": true, "beta_initializer": {"class_name": "Zeros", "config": {}}, "gamma_initializer": {"class_name": "Ones", "config": {}}, "moving_mean_initializer": {"class_name": "Zeros", "config": {}}, "moving_variance_initializer": {"class_name": "Ones", "config": {}}, "beta_regularizer": null, "gamma_regularizer": null, "beta_constraint": null, "gamma_constraint": null}, "inbound_nodes": [[["block_11_depthwise", 0, 0, {}]]]}, {"name": "block_11_depthwise_relu", "class_name": "ReLU", "config": {"name": "block_11_depthwise_relu", "trainable": true, "dtype": "float32", "max_value": 6.0, "negative_slope": 0.0, "threshold": 0.0}, "inbound_nodes": [[["block_11_depthwise_BN", 0, 0, {}]]]}, {"name": "block_11_project", "class_name": "Conv2D", "config": {"name": "block_11_project", "trainable": true, "dtype": "float32", "filters": 144, "kernel_size": [1, 1], "strides": [1, 1], "padding": "same", "data_format": "channels_last", "dilation_rate": [1, 1], "activation": "linear", "use_bias": false, "kernel_initializer": {"class_name": "GlorotUniform", "config": {"seed": null}}, "bias_initializer": {"class_name": "Zeros", "config": {}}, "kernel_regularizer": null, "bias_regularizer": null, "activity_regularizer": null, "kernel_constraint": null, "bias_constraint": null}, "inbound_nodes": [[["block_11_depthwise_relu", 0, 0, {}]]]}, {"name": "block_11_project_BN", "class_name": "BatchNormalization", "config": {"name": "block_11_project_BN", "trainable": true, "dtype": "float32", "axis": [3], "momentum": 0.999, "epsilon": 0.001, "center": true, "scale": true, "beta_initializer": {"class_name": "Zeros", "config": {}}, "gamma_initializer": {"class_name": "Ones", "config": {}}, "moving_mean_initializer": {"class_name": "Zeros", "config": {}}, "moving_variance_initializer": {"class_name": "Ones", "config": {}}, "beta_regularizer": null, "gamma_regularizer": null, "beta_constraint": null, "gamma_constraint": null}, "inbound_nodes": [[["block_11_project", 0, 0, {}]]]}, {"name": "block_11_add", "class_name": "Add", "config": {"name": "block_11_add", "trainable": true, "dtype": "float32"}, "inbound_nodes": [[["block_10_project_BN", 0, 0, {}], ["block_11_project_BN", 0, 0, {}]]]}, {"name": "block_12_expand", "class_name": "Conv2D", "config": {"name": "block_12_expand", "trainable": true, "dtype": "float32", "filters": 864, "kernel_size": [1, 1], "strides": [1, 1], "padding": "same", "data_format": "channels_last", "dilation_rate": [1, 1], "activation": "linear", "use_bias": false, "kernel_initializer": {"class_name": "GlorotUniform", "config": {"seed": null}}, "bias_initializer": {"class_name": "Zeros", "config": {}}, "kernel_regularizer": null, "bias_regularizer": null, "activity_regularizer": null, "kernel_constraint": null, "bias_constraint": null}, "inbound_nodes": [[["block_11_add", 0, 0, {}]]]}, {"name": "block_12_expand_BN", "class_name": "BatchNormalization", "config": {"name": "block_12_expand_BN", "trainable": true, "dtype": "float32", "axis": [3], "momentum": 0.999, "epsilon": 0.001, "center": true, "scale": true, "beta_initializer": {"class_name": "Zeros", "config": {}}, "gamma_initializer": {"class_name": "Ones", "config": {}}, "moving_mean_initializer": {"class_name": "Zeros", "config": {}}, "moving_variance_initializer": {"class_name": "Ones", "config": {}}, "beta_regularizer": null, "gamma_regularizer": null, "beta_constraint": null, "gamma_constraint": null}, "inbound_nodes": [[["block_12_expand", 0, 0, {}]]]}, {"name": "block_12_expand_relu", "class_name": "ReLU", "config": {"name": "block_12_expand_relu", "trainable": true, "dtype": "float32", "max_value": 6.0, "negative_slope": 0.0, "threshold": 0.0}, "inbound_nodes": [[["block_12_expand_BN", 0, 0, {}]]]}, {"name": "block_12_depthwise", "class_name": "DepthwiseConv2D", "config": {"name": "block_12_depthwise", "trainable": true, "dtype": "float32", "kernel_size": [3, 3], "strides": [1, 1], "padding": "same", "data_format": "channels_last", "dilation_rate": [1, 1], "activation": "linear", "use_bias": false, "bias_initializer": {"class_name": "Zeros", "config": {}}, "bias_regularizer": null, "activity_regularizer": null, "bias_constraint": null, "depth_multiplier": 1, "depthwise_initializer": {"class_name": "GlorotUniform", "config": {"seed": null}}, "depthwise_regularizer": null, "depthwise_constraint": null}, "inbound_nodes": [[["block_12_expand_relu", 0, 0, {}]]]}, {"name": "block_12_depthwise_BN", "class_name": "BatchNormalization", "config": {"name": "block_12_depthwise_BN", "trainable": true, "dtype": "float32", "axis": [3], "momentum": 0.999, "epsilon": 0.001, "center": true, "scale": true, "beta_initializer": {"class_name": "Zeros", "config": {}}, "gamma_initializer": {"class_name": "Ones", "config": {}}, "moving_mean_initializer": {"class_name": "Zeros", "config": {}}, "moving_variance_initializer": {"class_name": "Ones", "config": {}}, "beta_regularizer": null, "gamma_regularizer": null, "beta_constraint": null, "gamma_constraint": null}, "inbound_nodes": [[["block_12_depthwise", 0, 0, {}]]]}, {"name": "block_12_depthwise_relu", "class_name": "ReLU", "config": {"name": "block_12_depthwise_relu", "trainable": true, "dtype": "float32", "max_value": 6.0, "negative_slope": 0.0, "threshold": 0.0}, "inbound_nodes": [[["block_12_depthwise_BN", 0, 0, {}]]]}, {"name": "block_12_project", "class_name": "Conv2D", "config": {"name": "block_12_project", "trainable": true, "dtype": "float32", "filters": 144, "kernel_size": [1, 1], "strides": [1, 1], "padding": "same", "data_format": "channels_last", "dilation_rate": [1, 1], "activation": "linear", "use_bias": false, "kernel_initializer": {"class_name": "GlorotUniform", "config": {"seed": null}}, "bias_initializer": {"class_name": "Zeros", "config": {}}, "kernel_regularizer": null, "bias_regularizer": null, "activity_regularizer": null, "kernel_constraint": null, "bias_constraint": null}, "inbound_nodes": [[["block_12_depthwise_relu", 0, 0, {}]]]}, {"name": "block_12_project_BN", "class_name": "BatchNormalization", "config": {"name": "block_12_project_BN", "trainable": true, "dtype": "float32", "axis": [3], "momentum": 0.999, "epsilon": 0.001, "center": true, "scale": true, "beta_initializer": {"class_name": "Zeros", "config": {}}, "gamma_initializer": {"class_name": "Ones", "config": {}}, "moving_mean_initializer": {"class_name": "Zeros", "config": {}}, "moving_variance_initializer": {"class_name": "Ones", "config": {}}, "beta_regularizer": null, "gamma_regularizer": null, "beta_constraint": null, "gamma_constraint": null}, "inbound_nodes": [[["block_12_project", 0, 0, {}]]]}, {"name": "block_12_add", "class_name": "Add", "config": {"name": "block_12_add", "trainable": true, "dtype": "float32"}, "inbound_nodes": [[["block_11_add", 0, 0, {}], ["block_12_project_BN", 0, 0, {}]]]}, {"name": "block_13_expand", "class_name": "Conv2D", "config": {"name": "block_13_expand", "trainable": true, "dtype": "float32", "filters": 864, "kernel_size": [1, 1], "strides": [1, 1], "padding": "same", "data_format": "channels_last", "dilation_rate": [1, 1], "activation": "linear", "use_bias": false, "kernel_initializer": {"class_name": "GlorotUniform", "config": {"seed": null}}, "bias_initializer": {"class_name": "Zeros", "config": {}}, "kernel_regularizer": null, "bias_regularizer": null, "activity_regularizer": null, "kernel_constraint": null, "bias_constraint": null}, "inbound_nodes": [[["block_12_add", 0, 0, {}]]]}, {"name": "block_13_expand_BN", "class_name": "BatchNormalization", "config": {"name": "block_13_expand_BN", "trainable": true, "dtype": "float32", "axis": [3], "momentum": 0.999, "epsilon": 0.001, "center": true, "scale": true, "beta_initializer": {"class_name": "Zeros", "config": {}}, "gamma_initializer": {"class_name": "Ones", "config": {}}, "moving_mean_initializer": {"class_name": "Zeros", "config": {}}, "moving_variance_initializer": {"class_name": "Ones", "config": {}}, "beta_regularizer": null, "gamma_regularizer": null, "beta_constraint": null, "gamma_constraint": null}, "inbound_nodes": [[["block_13_expand", 0, 0, {}]]]}, {"name": "block_13_expand_relu", "class_name": "ReLU", "config": {"name": "block_13_expand_relu", "trainable": true, "dtype": "float32", "max_value": 6.0, "negative_slope": 0.0, "threshold": 0.0}, "inbound_nodes": [[["block_13_expand_BN", 0, 0, {}]]]}, {"name": "block_13_pad", "class_name": "ZeroPadding2D", "config": {"name": "block_13_pad", "trainable": true, "dtype": "float32", "padding": [[0, 1], [0, 1]], "data_format": "channels_last"}, "inbound_nodes": [[["block_13_expand_relu", 0, 0, {}]]]}, {"name": "block_13_depthwise", "class_name": "DepthwiseConv2D", "config": {"name": "block_13_depthwise", "trainable": true, "dtype": "float32", "kernel_size": [3, 3], "strides": [2, 2], "padding": "valid", "data_format": "channels_last", "dilation_rate": [1, 1], "activation": "linear", "use_bias": false, "bias_initializer": {"class_name": "Zeros", "config": {}}, "bias_regularizer": null, "activity_regularizer": null, "bias_constraint": null, "depth_multiplier": 1, "depthwise_initializer": {"class_name": "GlorotUniform", "config": {"seed": null}}, "depthwise_regularizer": null, "depthwise_constraint": null}, "inbound_nodes": [[["block_13_pad", 0, 0, {}]]]}, {"name": "block_13_depthwise_BN", "class_name": "BatchNormalization", "config": {"name": "block_13_depthwise_BN", "trainable": true, "dtype": "float32", "axis": [3], "momentum": 0.999, "epsilon": 0.001, "center": true, "scale": true, "beta_initializer": {"class_name": "Zeros", "config": {}}, "gamma_initializer": {"class_name": "Ones", "config": {}}, "moving_mean_initializer": {"class_name": "Zeros", "config": {}}, "moving_variance_initializer": {"class_name": "Ones", "config": {}}, "beta_regularizer": null, "gamma_regularizer": null, "beta_constraint": null, "gamma_constraint": null}, "inbound_nodes": [[["block_13_depthwise", 0, 0, {}]]]}, {"name": "block_13_depthwise_relu", "class_name": "ReLU", "config": {"name": "block_13_depthwise_relu", "trainable": true, "dtype": "float32", "max_value": 6.0, "negative_slope": 0.0, "threshold": 0.0}, "inbound_nodes": [[["block_13_depthwise_BN", 0, 0, {}]]]}, {"name": "block_13_project", "class_name": "Conv2D", "config": {"name": "block_13_project", "trainable": true, "dtype": "float32", "filters": 240, "kernel_size": [1, 1], "strides": [1, 1], "padding": "same", "data_format": "channels_last", "dilation_rate": [1, 1], "activation": "linear", "use_bias": false, "kernel_initializer": {"class_name": "GlorotUniform", "config": {"seed": null}}, "bias_initializer": {"class_name": "Zeros", "config": {}}, "kernel_regularizer": null, "bias_regularizer": null, "activity_regularizer": null, "kernel_constraint": null, "bias_constraint": null}, "inbound_nodes": [[["block_13_depthwise_relu", 0, 0, {}]]]}, {"name": "block_13_project_BN", "class_name": "BatchNormalization", "config": {"name": "block_13_project_BN", "trainable": true, "dtype": "float32", "axis": [3], "momentum": 0.999, "epsilon": 0.001, "center": true, "scale": true, "beta_initializer": {"class_name": "Zeros", "config": {}}, "gamma_initializer": {"class_name": "Ones", "config": {}}, "moving_mean_initializer": {"class_name": "Zeros", "config": {}}, "moving_variance_initializer": {"class_name": "Ones", "config": {}}, "beta_regularizer": null, "gamma_regularizer": null, "beta_constraint": null, "gamma_constraint": null}, "inbound_nodes": [[["block_13_project", 0, 0, {}]]]}, {"name": "block_14_expand", "class_name": "Conv2D", "config": {"name": "block_14_expand", "trainable": true, "dtype": "float32", "filters": 1440, "kernel_size": [1, 1], "strides": [1, 1], "padding": "same", "data_format": "channels_last", "dilation_rate": [1, 1], "activation": "linear", "use_bias": false, "kernel_initializer": {"class_name": "GlorotUniform", "config": {"seed": null}}, "bias_initializer": {"class_name": "Zeros", "config": {}}, "kernel_regularizer": null, "bias_regularizer": null, "activity_regularizer": null, "kernel_constraint": null, "bias_constraint": null}, "inbound_nodes": [[["block_13_project_BN", 0, 0, {}]]]}, {"name": "block_14_expand_BN", "class_name": "BatchNormalization", "config": {"name": "block_14_expand_BN", "trainable": true, "dtype": "float32", "axis": [3], "momentum": 0.999, "epsilon": 0.001, "center": true, "scale": true, "beta_initializer": {"class_name": "Zeros", "config": {}}, "gamma_initializer": {"class_name": "Ones", "config": {}}, "moving_mean_initializer": {"class_name": "Zeros", "config": {}}, "moving_variance_initializer": {"class_name": "Ones", "config": {}}, "beta_regularizer": null, "gamma_regularizer": null, "beta_constraint": null, "gamma_constraint": null}, "inbound_nodes": [[["block_14_expand", 0, 0, {}]]]}, {"name": "block_14_expand_relu", "class_name": "ReLU", "config": {"name": "block_14_expand_relu", "trainable": true, "dtype": "float32", "max_value": 6.0, "negative_slope": 0.0, "threshold": 0.0}, "inbound_nodes": [[["block_14_expand_BN", 0, 0, {}]]]}, {"name": "block_14_depthwise", "class_name": "DepthwiseConv2D", "config": {"name": "block_14_depthwise", "trainable": true, "dtype": "float32", "kernel_size": [3, 3], "strides": [1, 1], "padding": "same", "data_format": "channels_last", "dilation_rate": [1, 1], "activation": "linear", "use_bias": false, "bias_initializer": {"class_name": "Zeros", "config": {}}, "bias_regularizer": null, "activity_regularizer": null, "bias_constraint": null, "depth_multiplier": 1, "depthwise_initializer": {"class_name": "GlorotUniform", "config": {"seed": null}}, "depthwise_regularizer": null, "depthwise_constraint": null}, "inbound_nodes": [[["block_14_expand_relu", 0, 0, {}]]]}, {"name": "block_14_depthwise_BN", "class_name": "BatchNormalization", "config": {"name": "block_14_depthwise_BN", "trainable": true, "dtype": "float32", "axis": [3], "momentum": 0.999, "epsilon": 0.001, "center": true, "scale": true, "beta_initializer": {"class_name": "Zeros", "config": {}}, "gamma_initializer": {"class_name": "Ones", "config": {}}, "moving_mean_initializer": {"class_name": "Zeros", "config": {}}, "moving_variance_initializer": {"class_name": "Ones", "config": {}}, "beta_regularizer": null, "gamma_regularizer": null, "beta_constraint": null, "gamma_constraint": null}, "inbound_nodes": [[["block_14_depthwise", 0, 0, {}]]]}, {"name": "block_14_depthwise_relu", "class_name": "ReLU", "config": {"name": "block_14_depthwise_relu", "trainable": true, "dtype": "float32", "max_value": 6.0, "negative_slope": 0.0, "threshold": 0.0}, "inbound_nodes": [[["block_14_depthwise_BN", 0, 0, {}]]]}, {"name": "block_14_project", "class_name": "Conv2D", "config": {"name": "block_14_project", "trainable": true, "dtype": "float32", "filters": 240, "kernel_size": [1, 1], "strides": [1, 1], "padding": "same", "data_format": "channels_last", "dilation_rate": [1, 1], "activation": "linear", "use_bias": false, "kernel_initializer": {"class_name": "GlorotUniform", "config": {"seed": null}}, "bias_initializer": {"class_name": "Zeros", "config": {}}, "kernel_regularizer": null, "bias_regularizer": null, "activity_regularizer": null, "kernel_constraint": null, "bias_constraint": null}, "inbound_nodes": [[["block_14_depthwise_relu", 0, 0, {}]]]}, {"name": "block_14_project_BN", "class_name": "BatchNormalization", "config": {"name": "block_14_project_BN", "trainable": true, "dtype": "float32", "axis": [3], "momentum": 0.999, "epsilon": 0.001, "center": true, "scale": true, "beta_initializer": {"class_name": "Zeros", "config": {}}, "gamma_initializer": {"class_name": "Ones", "config": {}}, "moving_mean_initializer": {"class_name": "Zeros", "config": {}}, "moving_variance_initializer": {"class_name": "Ones", "config": {}}, "beta_regularizer": null, "gamma_regularizer": null, "beta_constraint": null, "gamma_constraint": null}, "inbound_nodes": [[["block_14_project", 0, 0, {}]]]}, {"name": "block_14_add", "class_name": "Add", "config": {"name": "block_14_add", "trainable": true, "dtype": "float32"}, "inbound_nodes": [[["block_13_project_BN", 0, 0, {}], ["block_14_project_BN", 0, 0, {}]]]}, {"name": "block_15_expand", "class_name": "Conv2D", "config": {"name": "block_15_expand", "trainable": true, "dtype": "float32", "filters": 1440, "kernel_size": [1, 1], "strides": [1, 1], "padding": "same", "data_format": "channels_last", "dilation_rate": [1, 1], "activation": "linear", "use_bias": false, "kernel_initializer": {"class_name": "GlorotUniform", "config": {"seed": null}}, "bias_initializer": {"class_name": "Zeros", "config": {}}, "kernel_regularizer": null, "bias_regularizer": null, "activity_regularizer": null, "kernel_constraint": null, "bias_constraint": null}, "inbound_nodes": [[["block_14_add", 0, 0, {}]]]}, {"name": "block_15_expand_BN", "class_name": "BatchNormalization", "config": {"name": "block_15_expand_BN", "trainable": true, "dtype": "float32", "axis": [3], "momentum": 0.999, "epsilon": 0.001, "center": true, "scale": true, "beta_initializer": {"class_name": "Zeros", "config": {}}, "gamma_initializer": {"class_name": "Ones", "config": {}}, "moving_mean_initializer": {"class_name": "Zeros", "config": {}}, "moving_variance_initializer": {"class_name": "Ones", "config": {}}, "beta_regularizer": null, "gamma_regularizer": null, "beta_constraint": null, "gamma_constraint": null}, "inbound_nodes": [[["block_15_expand", 0, 0, {}]]]}, {"name": "block_15_expand_relu", "class_name": "ReLU", "config": {"name": "block_15_expand_relu", "trainable": true, "dtype": "float32", "max_value": 6.0, "negative_slope": 0.0, "threshold": 0.0}, "inbound_nodes": [[["block_15_expand_BN", 0, 0, {}]]]}, {"name": "block_15_depthwise", "class_name": "DepthwiseConv2D", "config": {"name": "block_15_depthwise", "trainable": true, "dtype": "float32", "kernel_size": [3, 3], "strides": [1, 1], "padding": "same", "data_format": "channels_last", "dilation_rate": [1, 1], "activation": "linear", "use_bias": false, "bias_initializer": {"class_name": "Zeros", "config": {}}, "bias_regularizer": null, "activity_regularizer": null, "bias_constraint": null, "depth_multiplier": 1, "depthwise_initializer": {"class_name": "GlorotUniform", "config": {"seed": null}}, "depthwise_regularizer": null, "depthwise_constraint": null}, "inbound_nodes": [[["block_15_expand_relu", 0, 0, {}]]]}, {"name": "block_15_depthwise_BN", "class_name": "BatchNormalization", "config": {"name": "block_15_depthwise_BN", "trainable": true, "dtype": "float32", "axis": [3], "momentum": 0.999, "epsilon": 0.001, "center": true, "scale": true, "beta_initializer": {"class_name": "Zeros", "config": {}}, "gamma_initializer": {"class_name": "Ones", "config": {}}, "moving_mean_initializer": {"class_name": "Zeros", "config": {}}, "moving_variance_initializer": {"class_name": "Ones", "config": {}}, "beta_regularizer": null, "gamma_regularizer": null, "beta_constraint": null, "gamma_constraint": null}, "inbound_nodes": [[["block_15_depthwise", 0, 0, {}]]]}, {"name": "block_15_depthwise_relu", "class_name": "ReLU", "config": {"name": "block_15_depthwise_relu", "trainable": true, "dtype": "float32", "max_value": 6.0, "negative_slope": 0.0, "threshold": 0.0}, "inbound_nodes": [[["block_15_depthwise_BN", 0, 0, {}]]]}, {"name": "block_15_project", "class_name": "Conv2D", "config": {"name": "block_15_project", "trainable": true, "dtype": "float32", "filters": 240, "kernel_size": [1, 1], "strides": [1, 1], "padding": "same", "data_format": "channels_last", "dilation_rate": [1, 1], "activation": "linear", "use_bias": false, "kernel_initializer": {"class_name": "GlorotUniform", "config": {"seed": null}}, "bias_initializer": {"class_name": "Zeros", "config": {}}, "kernel_regularizer": null, "bias_regularizer": null, "activity_regularizer": null, "kernel_constraint": null, "bias_constraint": null}, "inbound_nodes": [[["block_15_depthwise_relu", 0, 0, {}]]]}, {"name": "block_15_project_BN", "class_name": "BatchNormalization", "config": {"name": "block_15_project_BN", "trainable": true, "dtype": "float32", "axis": [3], "momentum": 0.999, "epsilon": 0.001, "center": true, "scale": true, "beta_initializer": {"class_name": "Zeros", "config": {}}, "gamma_initializer": {"class_name": "Ones", "config": {}}, "moving_mean_initializer": {"class_name": "Zeros", "config": {}}, "moving_variance_initializer": {"class_name": "Ones", "config": {}}, "beta_regularizer": null, "gamma_regularizer": null, "beta_constraint": null, "gamma_constraint": null}, "inbound_nodes": [[["block_15_project", 0, 0, {}]]]}, {"name": "block_15_add", "class_name": "Add", "config": {"name": "block_15_add", "trainable": true, "dtype": "float32"}, "inbound_nodes": [[["block_14_add", 0, 0, {}], ["block_15_project_BN", 0, 0, {}]]]}, {"name": "block_16_expand", "class_name": "Conv2D", "config": {"name": "block_16_expand", "trainable": true, "dtype": "float32", "filters": 1440, "kernel_size": [1, 1], "strides": [1, 1], "padding": "same", "data_format": "channels_last", "dilation_rate": [1, 1], "activation": "linear", "use_bias": false, "kernel_initializer": {"class_name": "GlorotUniform", "config": {"seed": null}}, "bias_initializer": {"class_name": "Zeros", "config": {}}, "kernel_regularizer": null, "bias_regularizer": null, "activity_regularizer": null, "kernel_constraint": null, "bias_constraint": null}, "inbound_nodes": [[["block_15_add", 0, 0, {}]]]}, {"name": "block_16_expand_BN", "class_name": "BatchNormalization", "config": {"name": "block_16_expand_BN", "trainable": true, "dtype": "float32", "axis": [3], "momentum": 0.999, "epsilon": 0.001, "center": true, "scale": true, "beta_initializer": {"class_name": "Zeros", "config": {}}, "gamma_initializer": {"class_name": "Ones", "config": {}}, "moving_mean_initializer": {"class_name": "Zeros", "config": {}}, "moving_variance_initializer": {"class_name": "Ones", "config": {}}, "beta_regularizer": null, "gamma_regularizer": null, "beta_constraint": null, "gamma_constraint": null}, "inbound_nodes": [[["block_16_expand", 0, 0, {}]]]}, {"name": "block_16_expand_relu", "class_name": "ReLU", "config": {"name": "block_16_expand_relu", "trainable": true, "dtype": "float32", "max_value": 6.0, "negative_slope": 0.0, "threshold": 0.0}, "inbound_nodes": [[["block_16_expand_BN", 0, 0, {}]]]}, {"name": "block_16_depthwise", "class_name": "DepthwiseConv2D", "config": {"name": "block_16_depthwise", "trainable": true, "dtype": "float32", "kernel_size": [3, 3], "strides": [1, 1], "padding": "same", "data_format": "channels_last", "dilation_rate": [1, 1], "activation": "linear", "use_bias": false, "bias_initializer": {"class_name": "Zeros", "config": {}}, "bias_regularizer": null, "activity_regularizer": null, "bias_constraint": null, "depth_multiplier": 1, "depthwise_initializer": {"class_name": "GlorotUniform", "config": {"seed": null}}, "depthwise_regularizer": null, "depthwise_constraint": null}, "inbound_nodes": [[["block_16_expand_relu", 0, 0, {}]]]}, {"name": "block_16_depthwise_BN", "class_name": "BatchNormalization", "config": {"name": "block_16_depthwise_BN", "trainable": true, "dtype": "float32", "axis": [3], "momentum": 0.999, "epsilon": 0.001, "center": true, "scale": true, "beta_initializer": {"class_name": "Zeros", "config": {}}, "gamma_initializer": {"class_name": "Ones", "config": {}}, "moving_mean_initializer": {"class_name": "Zeros", "config": {}}, "moving_variance_initializer": {"class_name": "Ones", "config": {}}, "beta_regularizer": null, "gamma_regularizer": null, "beta_constraint": null, "gamma_constraint": null}, "inbound_nodes": [[["block_16_depthwise", 0, 0, {}]]]}, {"name": "block_16_depthwise_relu", "class_name": "ReLU", "config": {"name": "block_16_depthwise_relu", "trainable": true, "dtype": "float32", "max_value": 6.0, "negative_slope": 0.0, "threshold": 0.0}, "inbound_nodes": [[["block_16_depthwise_BN", 0, 0, {}]]]}, {"name": "block_16_project", "class_name": "Conv2D", "config": {"name": "block_16_project", "trainable": true, "dtype": "float32", "filters": 480, "kernel_size": [1, 1], "strides": [1, 1], "padding": "same", "data_format": "channels_last", "dilation_rate": [1, 1], "activation": "linear", "use_bias": false, "kernel_initializer": {"class_name": "GlorotUniform", "config": {"seed": null}}, "bias_initializer": {"class_name": "Zeros", "config": {}}, "kernel_regularizer": null, "bias_regularizer": null, "activity_regularizer": null, "kernel_constraint": null, "bias_constraint": null}, "inbound_nodes": [[["block_16_depthwise_relu", 0, 0, {}]]]}, {"name": "block_16_project_BN", "class_name": "BatchNormalization", "config": {"name": "block_16_project_BN", "trainable": true, "dtype": "float32", "axis": [3], "momentum": 0.999, "epsilon": 0.001, "center": true, "scale": true, "beta_initializer": {"class_name": "Zeros", "config": {}}, "gamma_initializer": {"class_name": "Ones", "config": {}}, "moving_mean_initializer": {"class_name": "Zeros", "config": {}}, "moving_variance_initializer": {"class_name": "Ones", "config": {}}, "beta_regularizer": null, "gamma_regularizer": null, "beta_constraint": null, "gamma_constraint": null}, "inbound_nodes": [[["block_16_project", 0, 0, {}]]]}, {"name": "Conv_1", "class_name": "Conv2D", "config": {"name": "Conv_1", "trainable": true, "dtype": "float32", "filters": 1920, "kernel_size": [1, 1], "strides": [1, 1], "padding": "valid", "data_format": "channels_last", "dilation_rate": [1, 1], "activation": "linear", "use_bias": false, "kernel_initializer": {"class_name": "GlorotUniform", "config": {"seed": null}}, "bias_initializer": {"class_name": "Zeros", "config": {}}, "kernel_regularizer": null, "bias_regularizer": null, "activity_regularizer": null, "kernel_constraint": null, "bias_constraint": null}, "inbound_nodes": [[["block_16_project_BN", 0, 0, {}]]]}, {"name": "global_average_pooling2d", "class_name": "GlobalAveragePooling2D", "config": {"name": "global_average_pooling2d", "trainable": true, "dtype": "float32", "data_format": "channels_last"}, "inbound_nodes": [[["Conv_1", 0, 0, {}]]]}, {"name": "dense", "class_name": "Dense", "config": {"name": "dense", "trainable": true, "dtype": "float32", "units": 2, "activation": "softmax", "use_bias": true, "kernel_initializer": {"class_name": "RandomUniform", "config": {"minval": -0.05, "maxval": 0.05, "seed": null}}, "bias_initializer": {"class_name": "Zeros", "config": {}}, "kernel_regularizer": null, "bias_regularizer": null, "activity_regularizer": null, "kernel_constraint": null, "bias_constraint": null}, "inbound_nodes": [[["global_average_pooling2d", 0, 0, {}]]]}], "input_layers": [["input_1", 0, 0]], "output_layers": [["dense", 0, 0]]}}, "training_config": {"loss": "categorical_crossentropy", "metrics": ["acc"], "weighted_metrics": null, "sample_weight_mode": null, "loss_weights": null, "optimizer_config": {"class_name": "SGD", "config": {"name": "SGD", "learning_rate": 0.0003, "decay": 0.0, "momentum": 0.9, "nesterov": false}}}}, "weightsManifest": [{"paths": ["group1-shard1of3.bin", "group1-shard2of3.bin", "group1-shard3of3.bin"], "weights": [{"name": "Conv1/kernel", "shape": [3, 3, 1, 48], "dtype": "float32", "quantization": {"min": -0.17210020138623106, "scale": 5.68700685302462e-06, "dtype": "uint16"}}, {"name": "Conv_1/kernel", "shape": [1, 1, 480, 1920], "dtype": "float32", "quantization": {"min": -0.05266831224721584, "scale": 1.6015420618869988e-06, "dtype": "uint16"}}, {"name": "block_10_depthwise/depthwise_kernel", "shape": [3, 3, 576, 1], "dtype": "float32", "quantization": {"min": -0.05850545858228617, "scale": 1.96103300202072e-06, "dtype": "uint16"}}, {"name": "block_10_depthwise_BN/gamma", "shape": [576], "dtype": "float32", "quantization": {"min": 0.9949015974998474, "scale": 2.0034927847802507e-07, "dtype": "uint16"}}, {"name": "block_10_depthwise_BN/beta", "shape": [576], "dtype": "float32", "quantization": {"min": -0.003205130599344498, "scale": 1.347202975639737e-07, "dtype": "uint16"}}, {"name": "block_10_depthwise_BN/moving_mean", "shape": [576], "dtype": "float32", "quantization": {"min": -0.07076379260655226, "scale": 2.1835285301947747e-06, "dtype": "uint16"}}, {"name": "block_10_depthwise_BN/moving_variance", "shape": [576], "dtype": "float32", "quantization": {"min": 0.00025721974088810384, "scale": 1.1977324748777426e-07, "dtype": "uint16"}}, {"name": "block_10_expand/kernel", "shape": [1, 1, 96, 576], "dtype": "float32", "quantization": {"min": -0.1106559936322418, "scale": 3.2867791496789673e-06, "dtype": "uint16"}}, {"name": "block_10_expand_BN/gamma", "shape": [576], "dtype": "float32", "quantization": {"min": 0.9976050853729248, "scale": 6.465878395318639e-08, "dtype": "uint16"}}, {"name": "block_10_expand_BN/beta", "shape": [576], "dtype": "float32", "quantization": {"min": -0.0030385098411770044, "scale": 1.217644402170796e-07, "dtype": "uint16"}}, {"name": "block_10_expand_BN/moving_mean", "shape": [576], "dtype": "float32", "quantization": {"min": -2.3155265150638766e-09, "scale": 7.288864628128547e-14, "dtype": "uint16"}}, {"name": "block_10_expand_BN/moving_variance", "shape": [576], "dtype": "float32", "quantization": {"min": 0.7562218308448792, "scale": 4.7124872821014186e-05, "dtype": "uint16"}}, {"name": "block_10_project/kernel", "shape": [1, 1, 576, 144], "dtype": "float32", "quantization": {"min": -0.09854430203965046, "scale": 3.055732023927888e-06, "dtype": "uint16"}}, {"name": "block_10_project_BN/gamma", "shape": [144], "dtype": "float32", "quantization": {"min": 0.9913515448570251, "scale": 2.403858461596104e-07, "dtype": "uint16"}}, {"name": "block_10_project_BN/beta", "shape": [144], "dtype": "float32", "quantization": {"min": -4.752386330653284e-09, "scale": 1.2138917830532015e-13, "dtype": "uint16"}}, {"name": "block_10_project_BN/moving_mean", "shape": [144], "dtype": "float32", "quantization": {"min": -0.7350210288191784, "scale": 2.5875555474870747e-05, "dtype": "uint16"}}, {"name": "block_10_project_BN/moving_variance", "shape": [144], "dtype": "float32", "quantization": {"min": 0.31393158435821533, "scale": 1.7628975697455767e-05, "dtype": "uint16"}}, {"name": "block_11_depthwise/depthwise_kernel", "shape": [3, 3, 864, 1], "dtype": "float32", "quantization": {"min": -0.052774751014928484, "scale": 1.651895299077516e-06, "dtype": "uint16"}}, {"name": "block_11_depthwise_BN/gamma", "shape": [864], "dtype": "float32", "quantization": {"min": 0.9979024529457092, "scale": 1.3728577257375963e-07, "dtype": "uint16"}}, {"name": "block_11_depthwise_BN/beta", "shape": [864], "dtype": "float32", "quantization": {"min": -0.0026128743579751164, "scale": 8.151731064097327e-08, "dtype": "uint16"}}, {"name": "block_11_depthwise_BN/moving_mean", "shape": [864], "dtype": "float32", "quantization": {"min": -0.05021852887311398, "scale": 1.8670680326101044e-06, "dtype": "uint16"}}, {"name": "block_11_depthwise_BN/moving_variance", "shape": [864], "dtype": "float32", "quantization": {"min": 7.718822598690167e-05, "scale": 7.952457057022793e-08, "dtype": "uint16"}}, {"name": "block_11_expand/kernel", "shape": [1, 1, 144, 864], "dtype": "float32", "quantization": {"min": -0.08578469198647048, "scale": 2.622262394891193e-06, "dtype": "uint16"}}, {"name": "block_11_expand_BN/gamma", "shape": [864], "dtype": "float32", "quantization": {"min": 0.9988148808479309, "scale": 4.516528656292245e-08, "dtype": "uint16"}}, {"name": "block_11_expand_BN/beta", "shape": [864], "dtype": "float32", "quantization": {"min": -0.002049858296041204, "scale": 6.974204872214222e-08, "dtype": "uint16"}}, {"name": "block_11_expand_BN/moving_mean", "shape": [864], "dtype": "float32", "quantization": {"min": -9.05675804391292e-10, "scale": 2.925592933395652e-14, "dtype": "uint16"}}, {"name": "block_11_expand_BN/moving_variance", "shape": [864], "dtype": "float32", "quantization": {"min": 0.13286568224430084, "scale": 9.491011026277235e-06, "dtype": "uint16"}}, {"name": "block_11_project/kernel", "shape": [1, 1, 864, 144], "dtype": "float32", "quantization": {"min": -0.08367291095089548, "scale": 2.5297932260285858e-06, "dtype": "uint16"}}, {"name": "block_11_project_BN/gamma", "shape": [144], "dtype": "float32", "quantization": {"min": 0.9941344857215881, "scale": 1.712995744400915e-07, "dtype": "uint16"}}, {"name": "block_11_project_BN/beta", "shape": [144], "dtype": "float32", "quantization": {"min": -1.6314793652668855e-09, "scale": 5.880476374231853e-14, "dtype": "uint16"}}, {"name": "block_11_project_BN/moving_mean", "shape": [144], "dtype": "float32", "quantization": {"min": -1.1359795192709194, "scale": 3.142840003516169e-05, "dtype": "uint16"}}, {"name": "block_11_project_BN/moving_variance", "shape": [144], "dtype": "float32", "quantization": {"min": 0.26482459902763367, "scale": 9.373987967975081e-06, "dtype": "uint16"}}, {"name": "block_12_depthwise/depthwise_kernel", "shape": [3, 3, 864, 1], "dtype": "float32", "quantization": {"min": -0.03993614803028477, "scale": 1.4852225084712996e-06, "dtype": "uint16"}}, {"name": "block_12_depthwise_BN/gamma", "shape": [864], "dtype": "float32", "quantization": {"min": 0.9982909560203552, "scale": 7.303444846431133e-08, "dtype": "uint16"}}, {"name": "block_12_depthwise_BN/beta", "shape": [864], "dtype": "float32", "quantization": {"min": -0.002163514491495936, "scale": 7.356640795320943e-08, "dtype": "uint16"}}, {"name": "block_12_depthwise_BN/moving_mean", "shape": [864], "dtype": "float32", "quantization": {"min": -0.0464405838725559, "scale": 1.6184771684866488e-06, "dtype": "uint16"}}, {"name": "block_12_depthwise_BN/moving_variance", "shape": [864], "dtype": "float32", "quantization": {"min": 0.0001049599886755459, "scale": 8.988436779471734e-08, "dtype": "uint16"}}, {"name": "block_12_expand/kernel", "shape": [1, 1, 144, 864], "dtype": "float32", "quantization": {"min": -0.08281469683339014, "scale": 2.551913497885805e-06, "dtype": "uint16"}}, {"name": "block_12_expand_BN/gamma", "shape": [864], "dtype": "float32", "quantization": {"min": 0.9991312026977539, "scale": 3.055403122887728e-08, "dtype": "uint16"}}, {"name": "block_12_expand_BN/beta", "shape": [864], "dtype": "float32", "quantization": {"min": -0.0019317971163041998, "scale": 5.8510937615222916e-08, "dtype": "uint16"}}, {"name": "block_12_expand_BN/moving_mean", "shape": [864], "dtype": "float32", "quantization": {"min": -1.4161911169716377e-09, "scale": 4.4625527555432097e-14, "dtype": "uint16"}}, {"name": "block_12_expand_BN/moving_variance", "shape": [864], "dtype": "float32", "quantization": {"min": 0.312736451625824, "scale": 2.126556116937818e-05, "dtype": "uint16"}}, {"name": "block_12_project/kernel", "shape": [1, 1, 864, 144], "dtype": "float32", "quantization": {"min": -0.08090719509367594, "scale": 2.467435044027934e-06, "dtype": "uint16"}}, {"name": "block_12_project_BN/gamma", "shape": [144], "dtype": "float32", "quantization": {"min": 0.9959744215011597, "scale": 1.2396238138867233e-07, "dtype": "uint16"}}, {"name": "block_12_project_BN/beta", "shape": [144], "dtype": "float32", "quantization": {"min": -1.6033724236764628e-09, "scale": 4.215961777698359e-14, "dtype": "uint16"}}, {"name": "block_12_project_BN/moving_mean", "shape": [144], "dtype": "float32", "quantization": {"min": -0.7871762602245761, "scale": 2.3745890202852975e-05, "dtype": "uint16"}}, {"name": "block_12_project_BN/moving_variance", "shape": [144], "dtype": "float32", "quantization": {"min": 0.2393680214881897, "scale": 6.3882536570522164e-06, "dtype": "uint16"}}, {"name": "block_13_depthwise/depthwise_kernel", "shape": [3, 3, 864, 1], "dtype": "float32", "quantization": {"min": -0.042895395783667, "scale": 1.4786417022980696e-06, "dtype": "uint16"}}, {"name": "block_13_depthwise_BN/gamma", "shape": [864], "dtype": "float32", "quantization": {"min": 0.9976953864097595, "scale": 1.183116045825458e-07, "dtype": "uint16"}}, {"name": "block_13_depthwise_BN/beta", "shape": [864], "dtype": "float32", "quantization": {"min": -0.0029919520886152345, "scale": 9.513663673297194e-08, "dtype": "uint16"}}, {"name": "block_13_depthwise_BN/moving_mean", "shape": [864], "dtype": "float32", "quantization": {"min": -0.05785130422937249, "scale": 2.0269543544154896e-06, "dtype": "uint16"}}, {"name": "block_13_depthwise_BN/moving_variance", "shape": [864], "dtype": "float32", "quantization": {"min": 9.854434756562114e-05, "scale": 9.721548646032478e-08, "dtype": "uint16"}}, {"name": "block_13_expand/kernel", "shape": [1, 1, 144, 864], "dtype": "float32", "quantization": {"min": -0.08478215425317545, "scale": 2.600201013714514e-06, "dtype": "uint16"}}, {"name": "block_13_expand_BN/gamma", "shape": [864], "dtype": "float32", "quantization": {"min": 0.998797595500946, "scale": 4.956912710618089e-08, "dtype": "uint16"}}, {"name": "block_13_expand_BN/beta", "shape": [864], "dtype": "float32", "quantization": {"min": -0.00197061668476271, "scale": 6.433826389247806e-08, "dtype": "uint16"}}, {"name": "block_13_expand_BN/moving_mean", "shape": [864], "dtype": "float32", "quantization": {"min": -1.3786003643218515e-09, "scale": 4.8491043416174866e-14, "dtype": "uint16"}}, {"name": "block_13_expand_BN/moving_variance", "shape": [864], "dtype": "float32", "quantization": {"min": 0.5283957719802856, "scale": 2.5909540172462524e-05, "dtype": "uint16"}}, {"name": "block_13_project/kernel", "shape": [1, 1, 864, 240], "dtype": "float32", "quantization": {"min": -0.0779214993197685, "scale": 2.404984546906435e-06, "dtype": "uint16"}}, {"name": "block_13_project_BN/gamma", "shape": [240], "dtype": "float32", "quantization": {"min": 0.995628297328949, "scale": 1.16763620979773e-07, "dtype": "uint16"}}, {"name": "block_13_project_BN/beta", "shape": [240], "dtype": "float32", "quantization": {"min": -1.9423611320653035e-09, "scale": 5.575409415194051e-14, "dtype": "uint16"}}, {"name": "block_13_project_BN/moving_mean", "shape": [240], "dtype": "float32", "quantization": {"min": -0.8384298922659613, "scale": 2.9843735041858094e-05, "dtype": "uint16"}}, {"name": "block_13_project_BN/moving_variance", "shape": [240], "dtype": "float32", "quantization": {"min": 0.22830063104629517, "scale": 1.078137655120661e-05, "dtype": "uint16"}}, {"name": "block_14_depthwise/depthwise_kernel", "shape": [3, 3, 1440, 1], "dtype": "float32", "quantization": {"min": -0.03169666883813723, "scale": 1.1866522720278997e-06, "dtype": "uint16"}}, {"name": "block_14_depthwise_BN/gamma", "shape": [1440], "dtype": "float32", "quantization": {"min": 0.9989214539527893, "scale": 4.3999296563654115e-08, "dtype": "uint16"}}, {"name": "block_14_depthwise_BN/beta", "shape": [1440], "dtype": "float32", "quantization": {"min": -0.0017057543410800588, "scale": 5.5469881990181097e-08, "dtype": "uint16"}}, {"name": "block_14_depthwise_BN/moving_mean", "shape": [1440], "dtype": "float32", "quantization": {"min": -0.03931883709856072, "scale": 1.2684314181095786e-06, "dtype": "uint16"}}, {"name": "block_14_depthwise_BN/moving_variance", "shape": [1440], "dtype": "float32", "quantization": {"min": 7.650113548152149e-05, "scale": 2.9865888954874464e-08, "dtype": "uint16"}}, {"name": "block_14_expand/kernel", "shape": [1, 1, 240, 1440], "dtype": "float32", "quantization": {"min": -0.0642955980682806, "scale": 1.9708671203837968e-06, "dtype": "uint16"}}, {"name": "block_14_expand_BN/gamma", "shape": [1440], "dtype": "float32", "quantization": {"min": 0.9992063641548157, "scale": 2.5390751021508812e-08, "dtype": "uint16"}}, {"name": "block_14_expand_BN/beta", "shape": [1440], "dtype": "float32", "quantization": {"min": -0.0009535819854720333, "scale": 3.527082354904695e-08, "dtype": "uint16"}}, {"name": "block_14_expand_BN/moving_mean", "shape": [1440], "dtype": "float32", "quantization": {"min": -9.013371594066978e-10, "scale": 2.714053476081595e-14, "dtype": "uint16"}}, {"name": "block_14_expand_BN/moving_variance", "shape": [1440], "dtype": "float32", "quantization": {"min": 0.1546476036310196, "scale": 7.7883263806452e-06, "dtype": "uint16"}}, {"name": "block_14_project/kernel", "shape": [1, 1, 1440, 240], "dtype": "float32", "quantization": {"min": -0.0639264638299135, "scale": 1.9416372199584955e-06, "dtype": "uint16"}}, {"name": "block_14_project_BN/gamma", "shape": [240], "dtype": "float32", "quantization": {"min": 0.9983175992965698, "scale": 8.519912571876848e-08, "dtype": "uint16"}}, {"name": "block_14_project_BN/beta", "shape": [240], "dtype": "float32", "quantization": {"min": -9.100421426275608e-10, "scale": 2.60316983502835e-14, "dtype": "uint16"}}, {"name": "block_14_project_BN/moving_mean", "shape": [240], "dtype": "float32", "quantization": {"min": -1.0763044370260302, "scale": 2.7008216532233326e-05, "dtype": "uint16"}}, {"name": "block_14_project_BN/moving_variance", "shape": [240], "dtype": "float32", "quantization": {"min": 0.1473669409751892, "scale": 4.520502754031561e-06, "dtype": "uint16"}}, {"name": "block_15_depthwise/depthwise_kernel", "shape": [3, 3, 1440, 1], "dtype": "float32", "quantization": {"min": -0.029951014794381423, "scale": 1.0256143134055207e-06, "dtype": "uint16"}}, {"name": "block_15_depthwise_BN/gamma", "shape": [1440], "dtype": "float32", "quantization": {"min": 0.9994088411331177, "scale": 3.02557124147119e-08, "dtype": "uint16"}}, {"name": "block_15_depthwise_BN/beta", "shape": [1440], "dtype": "float32", "quantization": {"min": -0.0015957440364465089, "scale": 5.442695987061322e-08, "dtype": "uint16"}}, {"name": "block_15_depthwise_BN/moving_mean", "shape": [1440], "dtype": "float32", "quantization": {"min": -0.03811289506554467, "scale": 1.2386783797180496e-06, "dtype": "uint16"}}, {"name": "block_15_depthwise_BN/moving_variance", "shape": [1440], "dtype": "float32", "quantization": {"min": 8.878351945895702e-05, "scale": 2.1915634869298497e-08, "dtype": "uint16"}}, {"name": "block_15_expand/kernel", "shape": [1, 1, 240, 1440], "dtype": "float32", "quantization": {"min": -0.06360763815822304, "scale": 1.946795156802958e-06, "dtype": "uint16"}}, {"name": "block_15_expand_BN/gamma", "shape": [1440], "dtype": "float32", "quantization": {"min": 0.9996031522750854, "scale": 1.9317962234367848e-08, "dtype": "uint16"}}, {"name": "block_15_expand_BN/beta", "shape": [1440], "dtype": "float32", "quantization": {"min": -0.001076613222745174, "scale": 2.881727041609138e-08, "dtype": "uint16"}}, {"name": "block_15_expand_BN/moving_mean", "shape": [1440], "dtype": "float32", "quantization": {"min": -1.7512887027710756e-09, "scale": 5.4868372165269616e-14, "dtype": "uint16"}}, {"name": "block_15_expand_BN/moving_variance", "shape": [1440], "dtype": "float32", "quantization": {"min": 0.3441784977912903, "scale": 1.5622120459456097e-05, "dtype": "uint16"}}, {"name": "block_15_project/kernel", "shape": [1, 1, 1440, 240], "dtype": "float32", "quantization": {"min": -0.06284202097882356, "scale": 1.8958012845065635e-06, "dtype": "uint16"}}, {"name": "block_15_project_BN/gamma", "shape": [240], "dtype": "float32", "quantization": {"min": 0.9989524483680725, "scale": 6.936003380203044e-08, "dtype": "uint16"}}, {"name": "block_15_project_BN/beta", "shape": [240], "dtype": "float32", "quantization": {"min": -9.20186792916113e-10, "scale": 2.6521408603761616e-14, "dtype": "uint16"}}, {"name": "block_15_project_BN/moving_mean", "shape": [240], "dtype": "float32", "quantization": {"min": -0.7077296013934685, "scale": 2.5309501891551998e-05, "dtype": "uint16"}}, {"name": "block_15_project_BN/moving_variance", "shape": [240], "dtype": "float32", "quantization": {"min": 0.14167578518390656, "scale": 3.1243277294571924e-06, "dtype": "uint16"}}, {"name": "block_16_depthwise/depthwise_kernel", "shape": [3, 3, 1440, 1], "dtype": "float32", "quantization": {"min": -0.032006702787660844, "scale": 1.1653632910125922e-06, "dtype": "uint16"}}, {"name": "block_16_depthwise_BN/gamma", "shape": [1440], "dtype": "float32", "quantization": {"min": 0.999291181564331, "scale": 1.2378229868987738e-07, "dtype": "uint16"}}, {"name": "block_16_depthwise_BN/beta", "shape": [1440], "dtype": "float32", "quantization": {"min": -0.001081539748196817, "scale": 7.486258380264533e-08, "dtype": "uint16"}}, {"name": "block_16_depthwise_BN/moving_mean", "shape": [1440], "dtype": "float32", "quantization": {"min": -0.04390988190773287, "scale": 1.634099285762825e-06, "dtype": "uint16"}}, {"name": "block_16_depthwise_BN/moving_variance", "shape": [1440], "dtype": "float32", "quantization": {"min": 5.511659037438221e-05, "scale": 4.979673534757284e-08, "dtype": "uint16"}}, {"name": "block_16_expand/kernel", "shape": [1, 1, 240, 1440], "dtype": "float32", "quantization": {"min": -0.06447614444557731, "scale": 1.9878570817196643e-06, "dtype": "uint16"}}, {"name": "block_16_expand_BN/gamma", "shape": [1440], "dtype": "float32", "quantization": {"min": 0.999557614326477, "scale": 4.859868145156363e-08, "dtype": "uint16"}}, {"name": "block_16_expand_BN/beta", "shape": [1440], "dtype": "float32", "quantization": {"min": -0.00215587931130083, "scale": 4.763637252360585e-08, "dtype": "uint16"}}, {"name": "block_16_expand_BN/moving_mean", "shape": [1440], "dtype": "float32", "quantization": {"min": -1.8351891361822933e-09, "scale": 5.92703916346056e-14, "dtype": "uint16"}}, {"name": "block_16_expand_BN/moving_variance", "shape": [1440], "dtype": "float32", "quantization": {"min": 0.5267291069030762, "scale": 1.828048761643852e-05, "dtype": "uint16"}}, {"name": "block_16_project/kernel", "shape": [1, 1, 1440, 480], "dtype": "float32", "quantization": {"min": -0.060917480490141646, "scale": 1.874614736895053e-06, "dtype": "uint16"}}, {"name": "block_16_project_BN/gamma", "shape": [480], "dtype": "float32", "quantization": {"min": 0.999485969543457, "scale": 9.44579230608525e-08, "dtype": "uint16"}}, {"name": "block_16_project_BN/beta", "shape": [480], "dtype": "float32", "quantization": {"min": -0.011634533499136818, "scale": 3.992907371520632e-07, "dtype": "uint16"}}, {"name": "block_16_project_BN/moving_mean", "shape": [480], "dtype": "float32", "quantization": {"min": -0.6608894786600427, "scale": 2.2709417863378555e-05, "dtype": "uint16"}}, {"name": "block_16_project_BN/moving_variance", "shape": [480], "dtype": "float32", "quantization": {"min": 0.10877638310194016, "scale": 2.3495140733804e-06, "dtype": "uint16"}}, {"name": "block_1_depthwise/depthwise_kernel", "shape": [3, 3, 144, 1], "dtype": "float32", "quantization": {"min": -0.13573688053517244, "scale": 3.985111433462683e-06, "dtype": "uint16"}}, {"name": "block_1_depthwise_BN/gamma", "shape": [144], "dtype": "float32", "quantization": {"min": 0.9740025997161865, "scale": 6.823351647512422e-07, "dtype": "uint16"}}, {"name": "block_1_depthwise_BN/beta", "shape": [144], "dtype": "float32", "quantization": {"min": -0.01806439071301943, "scale": 4.989749665226482e-07, "dtype": "uint16"}}, {"name": "block_1_depthwise_BN/moving_mean", "shape": [144], "dtype": "float32", "quantization": {"min": -0.16273490162038362, "scale": 5.032311881389808e-06, "dtype": "uint16"}}, {"name": "block_1_depthwise_BN/moving_variance", "shape": [144], "dtype": "float32", "quantization": {"min": 0.00021300955268088728, "scale": 1.0848883622484196e-06, "dtype": "uint16"}}, {"name": "block_1_expand/kernel", "shape": [1, 1, 24, 144], "dtype": "float32", "quantization": {"min": -0.225442605641811, "scale": 6.826629289056777e-06, "dtype": "uint16"}}, {"name": "block_1_expand_BN/gamma", "shape": [144], "dtype": "float32", "quantization": {"min": 0.995496928691864, "scale": 1.2502377790126683e-07, "dtype": "uint16"}}, {"name": "block_1_expand_BN/beta", "shape": [144], "dtype": "float32", "quantization": {"min": -0.018161248669973033, "scale": 4.486252821000206e-07, "dtype": "uint16"}}, {"name": "block_1_expand_BN/moving_mean", "shape": [144], "dtype": "float32", "quantization": {"min": -3.6744174858813346e-07, "scale": 1.0963174262684494e-11, "dtype": "uint16"}}, {"name": "block_1_expand_BN/moving_variance", "shape": [144], "dtype": "float32", "quantization": {"min": 0.05536607280373573, "scale": 2.5092408048521783e-05, "dtype": "uint16"}}, {"name": "block_1_project/kernel", "shape": [1, 1, 144, 40], "dtype": "float32", "quantization": {"min": -0.21128861692410691, "scale": 6.274905468166634e-06, "dtype": "uint16"}}, {"name": "block_1_project_BN/gamma", "shape": [40], "dtype": "float32", "quantization": {"min": 0.9719487428665161, "scale": 6.876539709257517e-07, "dtype": "uint16"}}, {"name": "block_1_project_BN/beta", "shape": [40], "dtype": "float32", "quantization": {"min": -6.551281045044459e-08, "scale": 2.6187316804750603e-12, "dtype": "uint16"}}, {"name": "block_1_project_BN/moving_mean", "shape": [40], "dtype": "float32", "quantization": {"min": -0.8864629615096248, "scale": 2.7808857844515633e-05, "dtype": "uint16"}}, {"name": "block_1_project_BN/moving_variance", "shape": [40], "dtype": "float32", "quantization": {"min": 0.18203410506248474, "scale": 2.462453779225092e-05, "dtype": "uint16"}}, {"name": "block_2_depthwise/depthwise_kernel", "shape": [3, 3, 240, 1], "dtype": "float32", "quantization": {"min": -0.09630224480309821, "scale": 2.990474328574922e-06, "dtype": "uint16"}}, {"name": "block_2_depthwise_BN/gamma", "shape": [240], "dtype": "float32", "quantization": {"min": 0.9912224411964417, "scale": 3.756024867143876e-07, "dtype": "uint16"}}, {"name": "block_2_depthwise_BN/beta", "shape": [240], "dtype": "float32", "quantization": {"min": -0.0075526730384030474, "scale": 3.580144595374975e-07, "dtype": "uint16"}}, {"name": "block_2_depthwise_BN/moving_mean", "shape": [240], "dtype": "float32", "quantization": {"min": -0.10158499268196883, "scale": 3.5201674642029532e-06, "dtype": "uint16"}}, {"name": "block_2_depthwise_BN/moving_variance", "shape": [240], "dtype": "float32", "quantization": {"min": 0.0003706586721818894, "scale": 3.4694475644905674e-07, "dtype": "uint16"}}, {"name": "block_2_expand/kernel", "shape": [1, 1, 40, 240], "dtype": "float32", "quantization": {"min": -0.17167018224106706, "scale": 5.082758911652615e-06, "dtype": "uint16"}}, {"name": "block_2_expand_BN/gamma", "shape": [240], "dtype": "float32", "quantization": {"min": 0.9972084760665894, "scale": 7.920000712658908e-08, "dtype": "uint16"}}, {"name": "block_2_expand_BN/beta", "shape": [240], "dtype": "float32", "quantization": {"min": -0.006942708734303549, "scale": 2.366536705969782e-07, "dtype": "uint16"}}, {"name": "block_2_expand_BN/moving_mean", "shape": [240], "dtype": "float32", "quantization": {"min": -4.7815473333981654e-08, "scale": 1.6494919737126277e-12, "dtype": "uint16"}}, {"name": "block_2_expand_BN/moving_variance", "shape": [240], "dtype": "float32", "quantization": {"min": 0.057612095028162, "scale": 1.4087573424842288e-05, "dtype": "uint16"}}, {"name": "block_2_project/kernel", "shape": [1, 1, 240, 40], "dtype": "float32", "quantization": {"min": -0.1652121211304275, "scale": 5.02195030489475e-06, "dtype": "uint16"}}, {"name": "block_2_project_BN/gamma", "shape": [40], "dtype": "float32", "quantization": {"min": 0.9837058186531067, "scale": 5.785738784278968e-07, "dtype": "uint16"}}, {"name": "block_2_project_BN/beta", "shape": [40], "dtype": "float32", "quantization": {"min": -2.1553709577348015e-08, "scale": 6.196978113725314e-13, "dtype": "uint16"}}, {"name": "block_2_project_BN/moving_mean", "shape": [40], "dtype": "float32", "quantization": {"min": -1.0827213008834704, "scale": 2.9649787794273087e-05, "dtype": "uint16"}}, {"name": "block_2_project_BN/moving_variance", "shape": [40], "dtype": "float32", "quantization": {"min": 0.34154465794563293, "scale": 2.358495766195942e-05, "dtype": "uint16"}}, {"name": "block_3_depthwise/depthwise_kernel", "shape": [3, 3, 240, 1], "dtype": "float32", "quantization": {"min": -0.0927267255799998, "scale": 2.823762883854065e-06, "dtype": "uint16"}}, {"name": "block_3_depthwise_BN/gamma", "shape": [240], "dtype": "float32", "quantization": {"min": 0.9861168265342712, "scale": 4.890691390924853e-07, "dtype": "uint16"}}, {"name": "block_3_depthwise_BN/beta", "shape": [240], "dtype": "float32", "quantization": {"min": -0.00924005740992722, "scale": 3.4691411338191177e-07, "dtype": "uint16"}}, {"name": "block_3_depthwise_BN/moving_mean", "shape": [240], "dtype": "float32", "quantization": {"min": -0.11294610853372816, "scale": 3.5447418175855434e-06, "dtype": "uint16"}}, {"name": "block_3_depthwise_BN/moving_variance", "shape": [240], "dtype": "float32", "quantization": {"min": 0.00017152745567727834, "scale": 5.994137298510313e-07, "dtype": "uint16"}}, {"name": "block_3_expand/kernel", "shape": [1, 1, 40, 240], "dtype": "float32", "quantization": {"min": -0.17161828796005163, "scale": 5.177959448468852e-06, "dtype": "uint16"}}, {"name": "block_3_expand_BN/gamma", "shape": [240], "dtype": "float32", "quantization": {"min": 0.9949283003807068, "scale": 1.1034612844089827e-07, "dtype": "uint16"}}, {"name": "block_3_expand_BN/beta", "shape": [240], "dtype": "float32", "quantization": {"min": -0.009933178818493257, "scale": 3.4989534039569045e-07, "dtype": "uint16"}}, {"name": "block_3_expand_BN/moving_mean", "shape": [240], "dtype": "float32", "quantization": {"min": -4.428091421474549e-08, "scale": 1.7519649540947768e-12, "dtype": "uint16"}}, {"name": "block_3_expand_BN/moving_variance", "shape": [240], "dtype": "float32", "quantization": {"min": 0.2416905015707016, "scale": 3.461510186301968e-05, "dtype": "uint16"}}, {"name": "block_3_project/kernel", "shape": [1, 1, 240, 48], "dtype": "float32", "quantization": {"min": -0.1668782453865502, "scale": 5.010455935463586e-06, "dtype": "uint16"}}, {"name": "block_3_project_BN/gamma", "shape": [48], "dtype": "float32", "quantization": {"min": 0.9828826189041138, "scale": 4.953183725441022e-07, "dtype": "uint16"}}, {"name": "block_3_project_BN/beta", "shape": [48], "dtype": "float32", "quantization": {"min": -1.2099144002931031e-08, "scale": 3.5058804447657356e-13, "dtype": "uint16"}}, {"name": "block_3_project_BN/moving_mean", "shape": [48], "dtype": "float32", "quantization": {"min": -0.9863643407985366, "scale": 3.3542962007703754e-05, "dtype": "uint16"}}, {"name": "block_3_project_BN/moving_variance", "shape": [48], "dtype": "float32", "quantization": {"min": 0.7200114130973816, "scale": 1.9297259090566488e-05, "dtype": "uint16"}}, {"name": "block_4_depthwise/depthwise_kernel", "shape": [3, 3, 288, 1], "dtype": "float32", "quantization": {"min": -0.07914824856403556, "scale": 2.5974090497517574e-06, "dtype": "uint16"}}, {"name": "block_4_depthwise_BN/gamma", "shape": [288], "dtype": "float32", "quantization": {"min": 0.9933782815933228, "scale": 3.888240129385404e-07, "dtype": "uint16"}}, {"name": "block_4_depthwise_BN/beta", "shape": [288], "dtype": "float32", "quantization": {"min": -0.005304076352993802, "scale": 1.9722154952754524e-07, "dtype": "uint16"}}, {"name": "block_4_depthwise_BN/moving_mean", "shape": [288], "dtype": "float32", "quantization": {"min": -0.08938539597633784, "scale": 2.9992079984007597e-06, "dtype": "uint16"}}, {"name": "block_4_depthwise_BN/moving_variance", "shape": [288], "dtype": "float32", "quantization": {"min": 0.0004735657130368054, "scale": 2.2784715748290508e-07, "dtype": "uint16"}}, {"name": "block_4_expand/kernel", "shape": [1, 1, 48, 288], "dtype": "float32", "quantization": {"min": -0.1541295012713679, "scale": 4.613136430258535e-06, "dtype": "uint16"}}, {"name": "block_4_expand_BN/gamma", "shape": [288], "dtype": "float32", "quantization": {"min": 0.9967918992042542, "scale": 9.277260366253407e-08, "dtype": "uint16"}}, {"name": "block_4_expand_BN/beta", "shape": [288], "dtype": "float32", "quantization": {"min": -0.0077152374906457885, "scale": 1.9319971679886283e-07, "dtype": "uint16"}}, {"name": "block_4_expand_BN/moving_mean", "shape": [288], "dtype": "float32", "quantization": {"min": -6.828595239008205e-09, "scale": 2.0779609393853707e-13, "dtype": "uint16"}}, {"name": "block_4_expand_BN/moving_variance", "shape": [288], "dtype": "float32", "quantization": {"min": 0.09362383186817169, "scale": 1.8104067281317163e-05, "dtype": "uint16"}}, {"name": "block_4_project/kernel", "shape": [1, 1, 288, 48], "dtype": "float32", "quantization": {"min": -0.14694945534324996, "scale": 4.5396804245674994e-06, "dtype": "uint16"}}, {"name": "block_4_project_BN/gamma", "shape": [48], "dtype": "float32", "quantization": {"min": 0.9878579378128052, "scale": 4.026412672824442e-07, "dtype": "uint16"}}, {"name": "block_4_project_BN/beta", "shape": [48], "dtype": "float32", "quantization": {"min": -5.398649008690747e-09, "scale": 1.5523172720371348e-13, "dtype": "uint16"}}, {"name": "block_4_project_BN/moving_mean", "shape": [48], "dtype": "float32", "quantization": {"min": -1.131244882442608, "scale": 2.9601341910262926e-05, "dtype": "uint16"}}, {"name": "block_4_project_BN/moving_variance", "shape": [48], "dtype": "float32", "quantization": {"min": 0.4098023474216461, "scale": 2.553407638580655e-05, "dtype": "uint16"}}, {"name": "block_5_depthwise/depthwise_kernel", "shape": [3, 3, 288, 1], "dtype": "float32", "quantization": {"min": -0.06560155679743578, "scale": 2.2448604454517255e-06, "dtype": "uint16"}}, {"name": "block_5_depthwise_BN/gamma", "shape": [288], "dtype": "float32", "quantization": {"min": 0.9955273270606995, "scale": 2.3621483981277375e-07, "dtype": "uint16"}}, {"name": "block_5_depthwise_BN/beta", "shape": [288], "dtype": "float32", "quantization": {"min": -0.004438664385440822, "scale": 1.846059052337723e-07, "dtype": "uint16"}}, {"name": "block_5_depthwise_BN/moving_mean", "shape": [288], "dtype": "float32", "quantization": {"min": -0.07320893947229766, "scale": 2.6663123965581696e-06, "dtype": "uint16"}}, {"name": "block_5_depthwise_BN/moving_variance", "shape": [288], "dtype": "float32", "quantization": {"min": 0.00016094400780275464, "scale": 2.580117200846379e-07, "dtype": "uint16"}}, {"name": "block_5_expand/kernel", "shape": [1, 1, 48, 288], "dtype": "float32", "quantization": {"min": -0.14325031506471342, "scale": 4.354245267780584e-06, "dtype": "uint16"}}, {"name": "block_5_expand_BN/gamma", "shape": [288], "dtype": "float32", "quantization": {"min": 0.9979280829429626, "scale": 5.793842505724741e-08, "dtype": "uint16"}}, {"name": "block_5_expand_BN/beta", "shape": [288], "dtype": "float32", "quantization": {"min": -0.0039034703237184275, "scale": 1.6632452698105704e-07, "dtype": "uint16"}}, {"name": "block_5_expand_BN/moving_mean", "shape": [288], "dtype": "float32", "quantization": {"min": -1.1223914812925838e-08, "scale": 3.285785536147381e-13, "dtype": "uint16"}}, {"name": "block_5_expand_BN/moving_variance", "shape": [288], "dtype": "float32", "quantization": {"min": 0.20995517075061798, "scale": 3.004309909516708e-05, "dtype": "uint16"}}, {"name": "block_5_project/kernel", "shape": [1, 1, 288, 48], "dtype": "float32", "quantization": {"min": -0.145633487802326, "scale": 4.441534898969959e-06, "dtype": "uint16"}}, {"name": "block_5_project_BN/gamma", "shape": [48], "dtype": "float32", "quantization": {"min": 0.9895817637443542, "scale": 3.503017770422763e-07, "dtype": "uint16"}}, {"name": "block_5_project_BN/beta", "shape": [48], "dtype": "float32", "quantization": {"min": -3.1387190623665836e-09, "scale": 9.691592238518445e-14, "dtype": "uint16"}}, {"name": "block_5_project_BN/moving_mean", "shape": [48], "dtype": "float32", "quantization": {"min": -0.7745768356315965, "scale": 2.497426521462507e-05, "dtype": "uint16"}}, {"name": "block_5_project_BN/moving_variance", "shape": [48], "dtype": "float32", "quantization": {"min": 0.34204864501953125, "scale": 1.686137956040233e-05, "dtype": "uint16"}}, {"name": "block_6_depthwise/depthwise_kernel", "shape": [3, 3, 288, 1], "dtype": "float32", "quantization": {"min": -0.07631488023569521, "scale": 2.352058196255169e-06, "dtype": "uint16"}}, {"name": "block_6_depthwise_BN/gamma", "shape": [288], "dtype": "float32", "quantization": {"min": 0.9894741773605347, "scale": 4.96906374524385e-07, "dtype": "uint16"}}, {"name": "block_6_depthwise_BN/beta", "shape": [288], "dtype": "float32", "quantization": {"min": -0.008616460583171247, "scale": 3.565235262814981e-07, "dtype": "uint16"}}, {"name": "block_6_depthwise_BN/moving_mean", "shape": [288], "dtype": "float32", "quantization": {"min": -0.10562352013004048, "scale": 3.3495122765916304e-06, "dtype": "uint16"}}, {"name": "block_6_depthwise_BN/moving_variance", "shape": [288], "dtype": "float32", "quantization": {"min": 0.0001029536870191805, "scale": 4.658142029896974e-07, "dtype": "uint16"}}, {"name": "block_6_expand/kernel", "shape": [1, 1, 48, 288], "dtype": "float32", "quantization": {"min": -0.16213372823115554, "scale": 4.758981133322244e-06, "dtype": "uint16"}}, {"name": "block_6_expand_BN/gamma", "shape": [288], "dtype": "float32", "quantization": {"min": 0.9936518669128418, "scale": 1.2989055831162945e-07, "dtype": "uint16"}}, {"name": "block_6_expand_BN/beta", "shape": [288], "dtype": "float32", "quantization": {"min": -0.008334465823928893, "scale": 2.6224680859409374e-07, "dtype": "uint16"}}, {"name": "block_6_expand_BN/moving_mean", "shape": [288], "dtype": "float32", "quantization": {"min": -1.2293472452305181e-08, "scale": 3.468812768709137e-13, "dtype": "uint16"}}, {"name": "block_6_expand_BN/moving_variance", "shape": [288], "dtype": "float32", "quantization": {"min": 0.5293155312538147, "scale": 6.17947550781115e-05, "dtype": "uint16"}}, {"name": "block_6_project/kernel", "shape": [1, 1, 288, 96], "dtype": "float32", "quantization": {"min": -0.1375580284338917, "scale": 4.261533146438604e-06, "dtype": "uint16"}}, {"name": "block_6_project_BN/gamma", "shape": [96], "dtype": "float32", "quantization": {"min": 0.9881633520126343, "scale": 3.895752670254325e-07, "dtype": "uint16"}}, {"name": "block_6_project_BN/beta", "shape": [96], "dtype": "float32", "quantization": {"min": -5.421155569923171e-09, "scale": 1.6117602407977318e-13, "dtype": "uint16"}}, {"name": "block_6_project_BN/moving_mean", "shape": [96], "dtype": "float32", "quantization": {"min": -0.9169681077328357, "scale": 3.437685040611965e-05, "dtype": "uint16"}}, {"name": "block_6_project_BN/moving_variance", "shape": [96], "dtype": "float32", "quantization": {"min": 0.4043259918689728, "scale": 1.5018812949955577e-05, "dtype": "uint16"}}, {"name": "block_7_depthwise/depthwise_kernel", "shape": [3, 3, 576, 1], "dtype": "float32", "quantization": {"min": -0.057126212755461585, "scale": 2.1357988841911835e-06, "dtype": "uint16"}}, {"name": "block_7_depthwise_BN/gamma", "shape": [576], "dtype": "float32", "quantization": {"min": 0.9961453676223755, "scale": 1.646028627672266e-07, "dtype": "uint16"}}, {"name": "block_7_depthwise_BN/beta", "shape": [576], "dtype": "float32", "quantization": {"min": -0.0035198562031385416, "scale": 1.3127913632472555e-07, "dtype": "uint16"}}, {"name": "block_7_depthwise_BN/moving_mean", "shape": [576], "dtype": "float32", "quantization": {"min": -0.06270472642949201, "scale": 2.150367847376269e-06, "dtype": "uint16"}}, {"name": "block_7_depthwise_BN/moving_variance", "shape": [576], "dtype": "float32", "quantization": {"min": 0.00010183042468270287, "scale": 1.5482877785468703e-07, "dtype": "uint16"}}, {"name": "block_7_expand/kernel", "shape": [1, 1, 96, 576], "dtype": "float32", "quantization": {"min": -0.10481153419618613, "scale": 3.1749525686473445e-06, "dtype": "uint16"}}, {"name": "block_7_expand_BN/gamma", "shape": [576], "dtype": "float32", "quantization": {"min": 0.9979495406150818, "scale": 6.04322975829836e-08, "dtype": "uint16"}}, {"name": "block_7_expand_BN/beta", "shape": [576], "dtype": "float32", "quantization": {"min": -0.0036338954593949607, "scale": 1.1411196292651785e-07, "dtype": "uint16"}}, {"name": "block_7_expand_BN/moving_mean", "shape": [576], "dtype": "float32", "quantization": {"min": -1.1049148813815179e-09, "scale": 3.3602423252281424e-14, "dtype": "uint16"}}, {"name": "block_7_expand_BN/moving_variance", "shape": [576], "dtype": "float32", "quantization": {"min": 0.11677806079387665, "scale": 1.3638116851900357e-05, "dtype": "uint16"}}, {"name": "block_7_project/kernel", "shape": [1, 1, 576, 96], "dtype": "float32", "quantization": {"min": -0.1019145751428966, "scale": 3.135157816559406e-06, "dtype": "uint16"}}, {"name": "block_7_project_BN/gamma", "shape": [96], "dtype": "float32", "quantization": {"min": 0.9914345741271973, "scale": 2.5414216342866943e-07, "dtype": "uint16"}}, {"name": "block_7_project_BN/beta", "shape": [96], "dtype": "float32", "quantization": {"min": -3.426150609106023e-09, "scale": 9.652759928737317e-14, "dtype": "uint16"}}, {"name": "block_7_project_BN/moving_mean", "shape": [96], "dtype": "float32", "quantization": {"min": -1.0140401824002516, "scale": 3.1024634615274644e-05, "dtype": "uint16"}}, {"name": "block_7_project_BN/moving_variance", "shape": [96], "dtype": "float32", "quantization": {"min": 0.4145757257938385, "scale": 8.278748641127243e-06, "dtype": "uint16"}}, {"name": "block_8_depthwise/depthwise_kernel", "shape": [3, 3, 576, 1], "dtype": "float32", "quantization": {"min": -0.055527217447316604, "scale": 1.8451258539016617e-06, "dtype": "uint16"}}, {"name": "block_8_depthwise_BN/gamma", "shape": [576], "dtype": "float32", "quantization": {"min": 0.9975128173828125, "scale": 1.0299638960775671e-07, "dtype": "uint16"}}, {"name": "block_8_depthwise_BN/beta", "shape": [576], "dtype": "float32", "quantization": {"min": -0.0030742782091386085, "scale": 9.966860785017373e-08, "dtype": "uint16"}}, {"name": "block_8_depthwise_BN/moving_mean", "shape": [576], "dtype": "float32", "quantization": {"min": -0.06131189806452058, "scale": 1.973029704409351e-06, "dtype": "uint16"}}, {"name": "block_8_depthwise_BN/moving_variance", "shape": [576], "dtype": "float32", "quantization": {"min": 0.00016534690803382546, "scale": 9.255113277215964e-08, "dtype": "uint16"}}, {"name": "block_8_expand/kernel", "shape": [1, 1, 96, 576], "dtype": "float32", "quantization": {"min": -0.1037929300595414, "scale": 3.1603717818507216e-06, "dtype": "uint16"}}, {"name": "block_8_expand_BN/gamma", "shape": [576], "dtype": "float32", "quantization": {"min": 0.9985101222991943, "scale": 4.5702806133568003e-08, "dtype": "uint16"}}, {"name": "block_8_expand_BN/beta", "shape": [576], "dtype": "float32", "quantization": {"min": -0.0019332799229376115, "scale": 6.98338362569575e-08, "dtype": "uint16"}}, {"name": "block_8_expand_BN/moving_mean", "shape": [576], "dtype": "float32", "quantization": {"min": -1.7312293195329218e-09, "scale": 5.446343849790549e-14, "dtype": "uint16"}}, {"name": "block_8_expand_BN/moving_variance", "shape": [576], "dtype": "float32", "quantization": {"min": 0.31191781163215637, "scale": 2.5898230888027344e-05, "dtype": "uint16"}}, {"name": "block_8_project/kernel", "shape": [1, 1, 576, 96], "dtype": "float32", "quantization": {"min": -0.10113131328615724, "scale": 3.0904325047719484e-06, "dtype": "uint16"}}, {"name": "block_8_project_BN/gamma", "shape": [96], "dtype": "float32", "quantization": {"min": 0.9923959970474243, "scale": 2.0853758422171687e-07, "dtype": "uint16"}}, {"name": "block_8_project_BN/beta", "shape": [96], "dtype": "float32", "quantization": {"min": -2.4359937033719835e-09, "scale": 7.47787850985997e-14, "dtype": "uint16"}}, {"name": "block_8_project_BN/moving_mean", "shape": [96], "dtype": "float32", "quantization": {"min": -0.9693414466290304, "scale": 2.902133009877041e-05, "dtype": "uint16"}}, {"name": "block_8_project_BN/moving_variance", "shape": [96], "dtype": "float32", "quantization": {"min": 0.2700149118900299, "scale": 8.615204969059642e-06, "dtype": "uint16"}}, {"name": "block_9_depthwise/depthwise_kernel", "shape": [3, 3, 576, 1], "dtype": "float32", "quantization": {"min": -0.04960791877228399, "scale": 1.6999492417340822e-06, "dtype": "uint16"}}, {"name": "block_9_depthwise_BN/gamma", "shape": [576], "dtype": "float32", "quantization": {"min": 0.997053861618042, "scale": 1.1356306028755358e-07, "dtype": "uint16"}}, {"name": "block_9_depthwise_BN/beta", "shape": [576], "dtype": "float32", "quantization": {"min": -0.0023754244305047335, "scale": 8.261196461378359e-08, "dtype": "uint16"}}, {"name": "block_9_depthwise_BN/moving_mean", "shape": [576], "dtype": "float32", "quantization": {"min": -0.05910856354439651, "scale": 1.9221671992584472e-06, "dtype": "uint16"}}, {"name": "block_9_depthwise_BN/moving_variance", "shape": [576], "dtype": "float32", "quantization": {"min": 0.00024936196859925985, "scale": 8.80673978066448e-08, "dtype": "uint16"}}, {"name": "block_9_expand/kernel", "shape": [1, 1, 96, 576], "dtype": "float32", "quantization": {"min": -0.10338328008105756, "scale": 3.1295074945075694e-06, "dtype": "uint16"}}, {"name": "block_9_expand_BN/gamma", "shape": [576], "dtype": "float32", "quantization": {"min": 0.9987789988517761, "scale": 4.5403577810822846e-08, "dtype": "uint16"}}, {"name": "block_9_expand_BN/beta", "shape": [576], "dtype": "float32", "quantization": {"min": -0.0016050043887853597, "scale": 5.747965436326182e-08, "dtype": "uint16"}}, {"name": "block_9_expand_BN/moving_mean", "shape": [576], "dtype": "float32", "quantization": {"min": -2.327214037683515e-09, "scale": 6.287728406148046e-14, "dtype": "uint16"}}, {"name": "block_9_expand_BN/moving_variance", "shape": [576], "dtype": "float32", "quantization": {"min": 0.5124121904373169, "scale": 4.6267187130608544e-05, "dtype": "uint16"}}, {"name": "block_9_project/kernel", "shape": [1, 1, 576, 96], "dtype": "float32", "quantization": {"min": -0.09883404527738618, "scale": 3.0298603702448247e-06, "dtype": "uint16"}}, {"name": "block_9_project_BN/gamma", "shape": [96], "dtype": "float32", "quantization": {"min": 0.9928442239761353, "scale": 2.2376093882994893e-07, "dtype": "uint16"}}, {"name": "block_9_project_BN/beta", "shape": [96], "dtype": "float32", "quantization": {"min": -2.125130241715985e-09, "scale": 6.668539731755946e-14, "dtype": "uint16"}}, {"name": "block_9_project_BN/moving_mean", "shape": [96], "dtype": "float32", "quantization": {"min": -0.7197426675276779, "scale": 2.2212223174634382e-05, "dtype": "uint16"}}, {"name": "block_9_project_BN/moving_variance", "shape": [96], "dtype": "float32", "quantization": {"min": 0.32093551754951477, "scale": 1.0613442613265966e-05, "dtype": "uint16"}}, {"name": "bn_Conv1/gamma", "shape": [48], "dtype": "float32", "quantization": {"min": 0.9951789975166321, "scale": 1.2903471073806353e-07, "dtype": "uint16"}}, {"name": "bn_Conv1/beta", "shape": [48], "dtype": "float32", "quantization": {"min": -0.043045178764384115, "scale": 1.0740351006633095e-06, "dtype": "uint16"}}, {"name": "bn_Conv1/moving_mean", "shape": [48], "dtype": "float32", "quantization": {"min": -0.431192291844325, "scale": 1.2519010883033563e-05, "dtype": "uint16"}}, {"name": "bn_Conv1/moving_variance", "shape": [48], "dtype": "float32", "quantization": {"min": 0.0021653620060533285, "scale": 6.654131358901942e-07, "dtype": "uint16"}}, {"name": "dense/kernel", "shape": [1920, 2], "dtype": "float32", "quantization": {"min": -0.07374620343828998, "scale": 2.155376397436504e-06, "dtype": "uint16"}}, {"name": "dense/bias", "shape": [2], "dtype": "float32", "quantization": {"min": -0.07666856406620785, "scale": 2.3398102989656624e-06, "dtype": "uint16"}}, {"name": "expanded_conv_depthwise/depthwise_kernel", "shape": [3, 3, 48, 1], "dtype": "float32", "quantization": {"min": -0.1935974187560637, "scale": 6.104093162948155e-06, "dtype": "uint16"}}, {"name": "expanded_conv_depthwise_BN/gamma", "shape": [48], "dtype": "float32", "quantization": {"min": 0.9696603417396545, "scale": 9.726566699746817e-07, "dtype": "uint16"}}, {"name": "expanded_conv_depthwise_BN/beta", "shape": [48], "dtype": "float32", "quantization": {"min": -0.027260777238278074, "scale": 9.300527869495437e-07, "dtype": "uint16"}}, {"name": "expanded_conv_depthwise_BN/moving_mean", "shape": [48], "dtype": "float32", "quantization": {"min": -0.18197018513260585, "scale": 5.988816361119165e-06, "dtype": "uint16"}}, {"name": "expanded_conv_depthwise_BN/moving_variance", "shape": [48], "dtype": "float32", "quantization": {"min": 0.0020081757102161646, "scale": 2.741144399911204e-06, "dtype": "uint16"}}, {"name": "expanded_conv_project/kernel", "shape": [1, 1, 48, 24], "dtype": "float32", "quantization": {"min": -0.313291872426739, "scale": 9.61637473301019e-06, "dtype": "uint16"}}, {"name": "expanded_conv_project_BN/gamma", "shape": [24], "dtype": "float32", "quantization": {"min": 0.9651011228561401, "scale": 8.835912232833005e-07, "dtype": "uint16"}}, {"name": "expanded_conv_project_BN/beta", "shape": [24], "dtype": "float32", "quantization": {"min": -5.045183122561019e-07, "scale": 1.48074170068121e-11, "dtype": "uint16"}}, {"name": "expanded_conv_project_BN/moving_mean", "shape": [24], "dtype": "float32", "quantization": {"min": -0.7477419456582853, "scale": 2.4057847098172044e-05, "dtype": "uint16"}}, {"name": "expanded_conv_project_BN/moving_variance", "shape": [24], "dtype": "float32", "quantization": {"min": 0.12149125337600708, "scale": 2.6608158269317435e-05, "dtype": "uint16"}}]}]}